gru-sentiment/models/G_custom_gru.pt (torch, 969867 bytes, 14 tensors)

weight f4 [100, 400]
000000 30 f1 38 bd b8 07 86 3d a4 95 2c 3a cf d9 0e 3e
       -0.04515189 0.06544441 0.00065835775 0.13950275
000010 95 d7 8a bd a7 86 db 3c 77 8e dc 3c a2 19 17 be
       -0.067794 0.026797606 0.026923401 -0.14755872
000020 2a a0 c1 3d e9 82 73 bc 6d d2 f9 bc 51 b9 d1 bd
       0.09454377 -0.014862754 -0.030495847 -0.102404244
000030 2e df 52 bd c2 a2 ca bd 73 6b d2 ba 4e cf c1 3d
       -0.051482372 -0.09894325 -0.0016053751 0.09463368
000040 13 e4 95 bc e6 e7 1a 3e 4e b4 90 bd c4 25 9c bd
       -0.01829723 0.15127525 -0.070656404 -0.07624391
000050 37 ab 14 be b7 bc e4 3d ef e1 3d 3e b1 95 b1 bd
       -0.14518438 0.11168807 0.18543218 -0.086711295
000060 c6 eb d2 bc ae e7 bd 3a 30 f4 90 bd 0b 27 0d 3e
       -0.025747191 0.0014488602 -0.07077825 0.13784425
000070 b5 9d 8a 3d 64 b4 b1 3c 31 62 a5 bd c4 10 c8 3d
       0.067683615 0.021692462 -0.08075369 0.09768823
000080 da 04 58 be 24 4d 88 bc 58 6b a9 bd 99 87 15 3d
       -0.210956 -0.016638346 -0.08272427 0.03650627
000090 1a e4 f3 bb bc 8c 0f bd 96 56 da 3d 72 c6 57 3e
       -0.0074429633 -0.035046324 0.10661046 0.21071795
0000a0 a2 80 ff bc 12 08 d9 bc 55 b4 ee bc 91 3b 94 3c
       -0.031189267 -0.026493106 -0.029138723 0.01809481
0000b0 2d fd 89 3c 2d 0a 33 be d1 17 85 ba b9 ef 0e be
       0.016844356 -0.1748435 -0.0010154193 -0.13958634
0000c0 4b 3d 04 3c 85 f5 74 bd 33 01 d8 3c 53 d3 f2 39
       0.008071254 -0.05980446 0.02636776 0.00046315286
0000d0 b4 5f 9f 3c f4 e6 d1 3b 56 27 01 3e 27 8d 3a 3e
       0.019454814 0.0064057056 0.12612662 0.18217908
0000e0 64 99 bc bd 66 8e 20 bc 03 b7 16 bd 4c bc e6 bd
       -0.092089444 -0.009799575 -0.036795627 -0.112663835
0000f0 54 19 fb bd 9b 38 97 3c d2 68 34 be 91 5d 5d be
       -0.1226069 0.018459609 -0.17618111 -0.21617724
000100 6f a3 02 be 3f a5 50 3d a3 be 82 3d 3e 28 6b 3e
       -0.12757657 0.05093884 0.06384017 0.2296457
000110 6b e0 78 3d a4 88 59 3e 9d 8e 07 3d c9 d3 87 3c
       0.060760897 0.2124353 0.03309499 0.01658048
000120 20 f5 74 3d 52 86 91 bd 17 de 0a be 5f 8e 05 be
       0.059804082 -0.07105698 -0.13561283 -0.13042592
000130 7b 49 cb 3d e7 bf 2f 3e 89 df 22 bb 1b 52 80 3d
       0.09926125 0.17163049 -0.0024852476 0.062656604
000140 eb 32 57 3e aa df 6b bd 59 ae da bc fb 1f be 3d
       0.21015517 -0.05758635 -0.026694464 0.092834435
000150 6c 72 8f bd ae 1b 4e bc 24 ed fd bc 5d a9 84 3d
       -0.07004246 -0.012579842 -0.030996867 0.06477616
000160 98 6c 5e 3d 56 3b 53 3b a0 ff 43 3e c0 44 df b9
       0.05430278 0.0032231412 0.19140482 -0.00042585097
000170 22 b6 99 bd 75 ef 18 be 8d 60 15 3c 81 3b 1f be
       -0.07505442 -0.14935096 0.009117258 -0.15550043
000180 40 a6 77 3e 4d cf 94 3d 19 92 f7 3d 5d 22 24 3e
       0.24184513 0.07266102 0.12088413 0.16028734
000190 42 b1 98 bd f8 4a a3 be 3f 90 21 3d 14 0b 06 3e
       -0.07455684 -0.31893134 0.039444204 0.13090163
0001a0 44 79 6f 3c 8c eb f6 bd 47 6e e8 bd d2 9b 87 bd
       0.014616314 -0.12056646 -0.11349159 -0.06621517
0001b0 04 66 8d 3d 4b ff 0b be 9c 89 6a bd 11 58 47 be
       0.069042236 -0.13671605 -0.05726014 -0.19467188
0001c0 f8 de 11 bd ba ab e3 bd ae 06 b5 bb 44 38 38 3d
       -0.03561303 -0.111167386 -0.005524478 0.044975534
0001d0 6e 0c 97 3d b1 1d 2b be 3b 24 85 3e 75 95 85 3d
       0.07375418 -0.16710545 0.26004204 0.06522647
0001e0 41 81 aa bd b0 76 50 3c cc 6c 69 be 4e 3a 29 3e
       -0.083254345 0.01272361 -0.22795409 0.16526148
0001f0 92 0a 00 be 75 05 91 bd 5f 5d 20 be be c7 ab 3d
       -0.12504032 -0.07081119 -0.15660618 0.08387707
000200 f8 6d 24 3e 81 3c 0b be f7 ac 16 3d e1 45 f7 bd
       0.16057575 -0.13597299 0.036786046 -0.12073875
000210 bd dd 0c bc 71 a0 0f be 11 e2 04 bc e4 b5 27 be
       -0.008597788 -0.14026047 -0.008110539 -0.1637798
000220 cc db 0d 3d 9c d1 32 3d 9f e0 83 3c ad e0 42 be
       0.034633443 0.04365693 0.016098319 -0.1903102
000230 21 2c 27 bd 7d cf 7b bd c0 4d 4d bb b1 c6 67 be
       -0.04081357 -0.061477173 -0.003132686 -0.22634389
000240 a0 d1 4b 3e 30 1e 9a 3c 25 71 8e bb 98 b1 5d be
       0.19904184 0.018813223 -0.004346984 -0.21649778
000250 c2 22 e6 bc cf af 09 be 02 4f bd 3d 1a 32 94 bd
       -0.028092746 -0.13445972 0.09243585 -0.072361186
000260 52 57 0a be 76 44 2d 3e 49 82 b6 bc 0c 9f 35 3e
       -0.13509873 0.16920647 -0.022278922 0.17736453
000270 b6 65 3c bd cf 25 b6 bd 8b 2a b3 bd 33 40 84 bc
       -0.045995437 -0.0889393 -0.08748349 -0.016143894
000280 05 32 1f 3e 0d 27 91 3d cd a7 93 bd ce 42 86 bd
       0.15546425 0.070875265 -0.0720974 -0.06555711
000290 95 a6 d6 bb e5 4a a8 bd 1a 1e 94 3e e9 72 a4 39
       -0.00655062 -0.0821741 0.28929216 0.00031366132
0002a0 dc 81 d0 3c d0 16 20 3d 68 48 9f bd 31 f9 69 be
       0.025452547 0.039084256 -0.07777482 -0.22848965
0002b0 f0 ce 3c 3d 2d 6b 37 bd 77 6d d1 bd ac 50 69 bc
       0.04609579 -0.044779945 -0.10225957 -0.014240425
0002c0 5a 95 8a 3e 86 96 24 be a7 7d 92 3d 2f 50 e1 bc
       0.2706707 -0.16073045 0.071528725 -0.027504055
0002d0 7c b8 29 bd 2d 52 8f bd 4b 67 b4 bc 2b f2 63 bd
       -0.041435704 -0.06998096 -0.02202191 -0.05565087
0002e0 8a d5 35 bd 78 ae af bd af a9 43 be 55 69 b6 3c
       -0.0443931 -0.08578199 -0.19107698 0.022267023
0002f0 d6 01 6b 3e 8e eb 51 3e 61 48 0d 3e 09 79 34 bc
       0.22949919 0.20500013 0.13797142 -0.011015185
000300 c8 aa 3b bd dc 20 61 3d 4b d3 21 bc 33 43 a1 3d
       -0.045817167 0.054962978 -0.009877036 0.07874145
000310 8b cd ed 3b ea 45 e6 3d 9d d0 ca bd 37 48 e1 bd
       0.0072571686 0.11243804 -0.09903071 -0.11000102
000320 ae 4e 79 bd 7e 15 f8 3d bd a7 be bd fb 09 23 3d
       -0.06086605 0.12113474 -0.09309337 0.03980444
000330 ad 39 7a bd ba 2c da bd cb 27 3c 3d 26 29 0c bd
       -0.06109016 -0.10653062 0.045936387 -0.03421893
000340 dd e3 68 3d 9d 3f cc 3d ef b2 c8 3a 79 bb 16 3e
       0.056857932 0.09973071 0.0015312115 0.14719953
000350 84 65 99 bb 14 4a 92 3d 95 cd d2 bd cf 72 08 3c
       -0.004681291 0.071430355 -0.10293118 0.008328154
000360 57 e6 48 3d e7 b0 23 be 1e 90 cd bd cb b8 00 be
       0.049047794 -0.15985452 -0.10037254 -0.12570493
000370 c0 46 18 be c9 c6 53 bc c2 ed f5 3d 76 2b 81 3d
       -0.14870739 -0.012925812 0.12008239 0.06307118
000380 c9 eb 07 3d 9e ac fc bd 46 0f 2a 3e 47 f1 17 3e
       0.033183847 -0.123376116 0.16607389 0.14838134
000390 8a e1 1c bd 37 f8 03 3e 34 21 47 3d 89 4d 53 be
       -0.03830103 0.12887655 0.04861565 -0.20635046
0003a0 2a df 1d bb e3 5e 8b 3d 32 29 8b 3d 40 a3 2d 3d
       -0.0024089315 0.068052076 0.06794967 0.042392015
0003b0 99 ea 2d 3a fc d7 8e bd fc b1 43 3e 95 0e b3 bb
       0.0006634384 -0.069747895 0.19110864 -0.005464385
0003c0 73 48 05 3e bd da e5 3d 56 88 54 3e 54 0e 51 be
       0.13015918 0.11223362 0.20755133 -0.20415622
0003d0 d2 de c6 bb 86 3c 17 be 5b c4 10 be fb c1 00 3e
       -0.0060690427 -0.14769182 -0.14137404 0.12573998
0003e0 8f 4b 08 3d d5 ef 0c bd 0b 29 38 3c da 64 fe bd
       0.033275183 -0.03440841 0.011240254 -0.1242158
0003f0 a7 cd e3 3d f9 d9 71 3d 0c e1 a7 3d b9 2c 5c 3d
       0.111232094 0.059045766 0.08197221 0.05375359

bias f4 [100]
000000 c2 4d d5 3d f6 dc 2d 3e db 70 c6 3d 69 0f d6 bd
       0.10415222 0.16978821 0.09689494 -0.10452158
000010 4b e0 97 ba 3c cc e8 bd dd 07 9a 3d c9 32 a6 3d
       -0.001158723 -0.113670796 0.07521031 0.08115155
000020 0a 7c 14 3e 37 98 e3 bd 95 84 cd 3c 6d 7c 37 3c
       0.14500442 -0.11113017 0.025087634 0.011199099
000030 63 9a d2 3e 29 a1 8c 3e 2b b3 aa 3d 35 a7 09 3e
       0.41133413 0.27466705 0.08334955 0.1344269
000040 23 f9 48 3e 7d ff 27 3e 7c 12 02 3e 21 61 dc 3c
       0.19626288 0.16406055 0.12702364 0.026901783
000050 cd e8 fa 3d 8f f4 1f bd f8 93 3c 3d ed d4 7a 3d
       0.122514345 -0.03905159 0.04603955 0.061238218
000060 f3 87 9a 3e b1 fd 4f 3e 8c 81 45 3d ae d3 3d 3e
       0.30181846 0.2031162 0.04821925 0.1853778
000070 5b 26 8f 3c 88 32 21 3e 75 f3 98 bd bb d1 4b 3d
       0.017474344 0.15741932 -0.07468311 0.04976056
000080 ba 08 ba 3d c4 34 2e 3e 11 b5 08 3e 57 fd a6 ba
       0.09083696 0.17012316 0.13350321 -0.0012740296
000090 34 e7 5c 3e ff 0d a1 3e 7d f1 c0 3d a0 a4 83 3e
       0.21572572 0.3145599 0.0942106 0.25711536
0000a0 74 b7 a5 3e a3 9c 87 3d 70 7a 31 3e ba ba 38 3e
       0.32366526 0.06621673 0.17331862 0.1803998
0000b0 4f 20 5c 3e a9 08 86 bd 6b d3 74 3d 6b 5d 37 bd
       0.214967 -0.065446205 0.059771936 -0.044766825
0000c0 5c ec 47 3e fd 87 01 3d 04 94 e8 3b ae c1 bf 3e
       0.19523758 0.03162383 0.007097723 0.37452453
0000d0 bc 11 8e 3d 76 78 76 3e 85 cf 77 bd 8b dd 77 3c
       0.06936976 0.2406939 -0.06050064 0.015128504
0000e0 b8 5c a5 bd f5 db 19 3e 1e 11 97 3e 94 76 66 bd
       -0.08074325 0.15025313 0.29505247 -0.05626543
0000f0 4e f6 04 3e 18 e0 40 3d af 64 04 bd 2d fa 99 3e
       0.12984583 0.047088712 -0.03232258 0.3007368
000100 3e 8d 43 3e fe 5f fc bd 1f 0e bf 3d 90 ed fb 3d
       0.19096848 -0.123229966 0.09328865 0.12301171
000110 72 4e 7e 3c 01 32 0d bc 75 03 07 3e 11 6b 57 bd
       0.0155216325 -0.008617879 0.13184913 -0.05259234
000120 78 2c 61 3e ec 28 fe bd 8e 9b 24 3e 4a ba 55 3e
       0.2198962 -0.12410149 0.16074964 0.20871845
000130 9b 59 ce bc 04 9a 36 3e d8 0a ed 3d 4d 37 ca bd
       -0.025189212 0.1783219 0.11574334 -0.09873829
000140 44 e8 59 3e 47 5a bf bc fc 2a 23 3e 65 33 a7 3e
       0.21280009 -0.023358477 0.15934366 0.32656398
000150 28 1a 87 bb a5 f2 36 3e a0 7b 03 3e 01 c3 85 bc
       -0.004122991 0.17865999 0.12840128 -0.016328337
000160 0b 82 88 bd 6c 95 a7 3d a6 76 19 3e ac b0 82 be
       -0.06665429 0.08182797 0.14986667 -0.25525415
000170 97 3e f6 bc 99 3a 8e 3e a3 62 81 3e 88 55 5d 3e
       -0.030059142 0.2777908 0.25270566 0.21614659
000180 e0 ae f0 3d 8a 8c 8d bd 86 94 03 3e 1f 69 a5 3e
       0.11752105 -0.06911571 0.12849626 0.32306764

weight f4 [100, 400]
000000 91 69 b5 ba 5b c1 b8 bc da 40 6a bd 89 47 52 bc
       -0.0013840665 -0.022553137 -0.057190754 -0.012834438
000010 58 c4 25 3c f9 3f 17 bc 7b a1 0e 3d 44 ea 31 3d
       0.010117613 -0.009231561 0.03482197 0.043436304
000020 6d 0d f9 ba 3a f5 f1 bc 0f b6 1c 3c 01 9b 21 3d
       -0.0019001194 -0.029535878 0.0095648905 0.039454464
000030 7e 62 61 bd ab 16 47 bb eb 6e 08 bd 17 a2 e5 3b
       -0.05502557 -0.0030378501 -0.033308905 0.007007848
000040 3e a1 90 bd 79 cd 46 3c 4c e3 68 3c 22 98 43 3d
       -0.070620045 0.012133949 0.014214348 0.047752507
000050 a2 6d 01 bc 04 de c3 bc 83 53 8d 3d 33 dd c2 bd
       -0.007899674 -0.023909576 0.06900694 -0.09514847
000060 0d 96 72 bd b1 b6 5d 3c ca 76 a6 3c 18 1c 34 3c
       -0.05922513 0.013532327 0.020320315 0.010993026
000070 e1 9f 93 bd 05 51 0b 3c 32 07 c3 bd 62 f4 aa 3d
       -0.07208229 0.008503203 -0.09522857 0.083473936
000080 be d6 0e be a6 67 6c bd dc 02 cb bd d1 2b 10 be
       -0.13949105 -0.057716034 -0.09912655 -0.14079215
000090 29 41 b9 3d 22 de 16 3d 1d 75 2e bc e4 56 9c 3c
       0.090456314 0.036832936 -0.010648039 0.019084401
0000a0 59 7e dc bd 94 7b 21 bc 37 20 d2 bc eb 4f d8 bb
       -0.107662864 -0.0098561235 -0.025650127 -0.006601324
0000b0 3e a2 cb 3c e6 a5 ee bd 4a 59 f7 3a 94 d2 96 3d
       0.024857637 -0.11652736 0.0018871215 0.07364383
0000c0 28 20 8b bd a2 01 86 3d eb cd 01 3d 2d aa 6b 3d
       -0.06793243 0.0654328 0.03169052 0.05753534
0000d0 09 4b 94 3d 9a ad bb bc d0 37 bf 3d 09 08 cd 3c
       0.07240874 -0.022909928 0.09336817 0.025028246
0000e0 9f 8c 8c bd eb a8 ac 3b 24 2d 51 3b 9c bf 9f bc
       -0.06862759 0.00526916 0.0031917775 -0.019500546
0000f0 4d 87 c1 bc 73 c3 40 bd 04 f0 e6 bc e5 7b 43 bc
       -0.023624087 -0.047061395 -0.02819062 -0.011931394
000100 c1 24 74 3d 5a 5b 60 3d 77 17 95 bd d7 3b 9c 3d
       0.059605364 0.05477462 -0.07279866 0.07628601
000110 d8 ca d3 3d 6b 1c 67 3c f7 2f 9d 3c 82 f8 40 3d
       0.10341424 0.014105896 0.01918791 0.047111996
000120 78 b8 84 bd fa 28 e7 bc b2 d3 c3 bc 35 30 82 bd
       -0.06480497 -0.028217781 -0.023904655 -0.06356851
000130 af ab 80 bd 46 17 1c 3d 58 9e ab bd 85 1b 16 bd
       -0.06282746 0.038108133 -0.08379811 -0.03664734
000140 45 04 4b 3c a4 37 34 bd 3f cb b8 bd 9c 10 3d 3d
       0.012391155 -0.043998376 -0.09023141 0.046158418
000150 5c db ba 3c 33 b3 83 3c 4b 76 b6 3c 37 79 d8 bb
       0.022809677 0.01607666 0.022273203 -0.006606247
000160 2e ae 5c 3d b2 f1 04 3e 2c bd cd bc 6f 14 bb 3c
       0.05387705 0.12982824 -0.025114618 0.022836892
000170 a3 a5 10 bd 6e c9 dc 3c 4b 79 6c 3d 6f d1 ab bd
       -0.035314213 0.026951518 0.05773286 -0.08389556
000180 ec a8 2c 3e 6d ff bd 3d 28 bd 4e 3d c1 93 46 3c
       0.16861314 0.09277234 0.050473362 0.012120188
000190 f0 3a d7 3d 5f b2 2e bd 5c 04 11 bd c2 9e bc 3c
       0.10509288 -0.042650577 -0.035404548 0.02302492
0001a0 95 64 5b 3d a9 42 57 bd 30 5c 9a 3d 87 e1 ff 3d
       0.05356272 -0.052553806 0.075371146 0.12494188
0001b0 72 cf 0d 3d d4 90 2b 3d 04 8a f0 bd 5e 90 77 bd
       0.034621663 0.041886166 -0.117450744 -0.060440414
0001c0 04 62 10 bd d5 8b 9d bd a1 ee 28 bd e7 57 12 3d
       -0.035249725 -0.076926865 -0.0412432 0.03572836
0001d0 ae 82 10 bd 26 c3 d6 3c 17 c1 4c bd 01 7e 4b bd
       -0.035280876 0.0262161 -0.049988832 -0.049680714
0001e0 09 af 38 3d 59 81 10 be 5c 24 1e bd 3b 53 72 3d
       0.0450888 -0.14111842 -0.038608894 0.059161406
0001f0 59 35 32 bc 78 fd cc 3d 6b bc 35 3c 60 79 ff 3c
       -0.010876977 0.10009283 0.011092286 0.031185806
000200 7e bb f3 3d f5 60 1c be 35 3a f5 3c 04 27 07 3c
       0.11900996 -0.15271361 0.029934982 0.008249048
000210 0a e2 15 ba 29 8f bf 3d 51 22 20 3c a1 64 69 3d
       -0.00057175814 0.093534775 0.009773807 0.056980733
000220 04 70 46 bd 5d 5d 68 bc 1c c3 ce bc 92 c4 f8 bd
       -0.04844667 -0.014182416 -0.02523952 -0.12146868
000230 35 c0 b6 bc 20 bb 8e bd d9 83 71 bd d1 f3 31 be
       -0.022308448 -0.06969285 -0.05896363 -0.17378165
000240 04 c5 96 3d 81 dc 67 3d bd 4e 1d 3e d3 f7 c0 bd
       0.073617965 0.056606773 0.15362068 -0.09422269
000250 b1 c8 10 3e 29 1e ba 3a cd 39 3f bc e4 3a f8 bd
       0.14139058 0.0014199662 -0.011671496 -0.121206075
000260 d7 5f 12 bd 3d bf d1 bd 61 2b 88 bc 4f e5 51 3d
       -0.03573593 -0.10241554 -0.016622247 0.051244076
000270 0a d5 c7 bd c7 a1 52 3d 21 c6 f4 bb 99 1f da 3d
       -0.09757431 0.051423814 -0.007469908 0.10650558
000280 49 58 82 3d 59 2b b1 bc be 1e cd bc 57 9b 7b bc
       0.06364495 -0.021627115 -0.025039073 -0.01535686
000290 3d 88 f3 3c 43 23 a9 3c 1f be 0d 3e 9d b6 07 3c
       0.02972805 0.020646697 0.13842057 0.0082832845
0002a0 13 59 27 3d fc e8 0f 3d 7d 0f c7 3c c6 3d 43 3c
       0.040856432 0.0351343 0.024299378 0.011916583
0002b0 d2 f9 8d ba 2f f3 59 3d 05 4c b3 bd de 20 fe 3b
       -0.0010831899 0.053210434 -0.08754734 0.007755383
0002c0 6f 27 67 3d 6d c6 7e bd 52 47 f1 bd d2 8e fa 3d
       0.05643409 -0.062200952 -0.117811814 0.12234272
0002d0 a2 99 89 bc 87 92 34 3c 77 6a 51 bd 18 7f 96 bd
       -0.01679689 0.011021263 -0.051126923 -0.0734846
0002e0 7a 7a a1 3c ec 79 1f be fd bd 2a 3c bc 9f 5b 3d
       0.019711722 -0.15573853 0.010421273 0.05361913
0002f0 d1 e0 c7 bd 08 11 bf 3d d1 a9 95 3d 3a a2 e1 bd
       -0.09759677 0.0932942 0.073077805 -0.110172704
000300 99 87 da bd bf e1 78 3c f7 91 df 3d a6 a3 6a 3d
       -0.106703945 0.015190541 0.109165125 0.057284974
000310 ac 8c 96 3b 86 9f bd 3d b1 a0 e3 bb 71 05 93 3d
       0.004594406 0.09258942 -0.006946646 0.07178772
000320 3e 00 23 bd e7 dc c7 bc c0 2e 3f bd 7d 72 48 bd
       -0.039795153 -0.024397327 -0.046675444 -0.04893731
000330 ae 84 3e be 74 98 a3 ba a9 08 b9 3d ee a4 91 bd
       -0.18605301 -0.0012481348 0.09034855 -0.07111536
000340 67 bb 10 be 8e bc 23 bd 91 dd 1d bd bb c0 38 bc
       -0.14133988 -0.03997474 -0.03854138 -0.011276419
000350 5b a6 f1 3c 5f 1a 22 3c ff a0 fd 3c 27 b0 9b 3c
       0.02949827 0.009893983 0.030960558 0.019004894
000360 14 5e c8 3b 90 75 4f bd 61 5e 0f 3d 58 a5 db bd
       0.0061147306 -0.050649226 0.035002116 -0.10724896
000370 10 64 46 3b b8 20 82 bd 29 d4 06 bd 91 7f d6 bc
       0.0030272044 -0.06353897 -0.032917175 -0.026183875
000380 c0 14 18 bd 76 e5 af 3c b1 39 ad 3b e9 25 df 3c
       -0.037129164 0.02147172 0.0052864184 0.027239757
000390 9e c6 94 bd 20 d9 96 bd 9e 91 23 3d 15 82 4f 3d
       -0.07264446 -0.07365632 0.039933793 0.050661165
0003a0 4a 04 37 be 57 d8 79 bb e3 a1 9d 3d 86 53 13 3d
       -0.1787273 -0.0038123333 0.07696893 0.035968326
0003b0 64 d1 a4 3d 82 09 4e 3d 34 eb 82 3d 39 26 0e be
       0.080477506 0.050302036 0.06392518 -0.13881768
0003c0 a1 e7 ad 3d a9 cc 9e bd 58 5a bf 3d c9 8a 38 bc
       0.08491445 -0.077538796 0.093434036 -0.011263558
0003d0 08 02 13 3e d3 f6 5b be 91 bb 8d bd d5 53 d3 bd
       0.14356244 -0.21480875 -0.06920541 -0.10318724
0003e0 0a 36 e2 3d 7f 69 47 bd ba 34 90 3a 6a 13 5f 3c
       0.110454634 -0.048684593 0.0011002042 0.0136154685
0003f0 74 e2 c6 3d 47 de 65 bd 03 cc e7 bd b7 28 88 3d
       0.09711161 -0.056120183 -0.11318209 0.06648391

bias f4 [100]
000000 ff 2a c3 3c e4 41 06 3d f5 0f c7 bd 46 a4 96 bd
       0.023824213 0.032777682 -0.097198404 -0.073555514
000010 16 61 e1 bd 95 23 bf bd b3 e0 19 be 17 bf d6 3b
       -0.11004846 -0.093329586 -0.15027122 0.0065535414
000020 c0 1f e5 bc 24 20 1a bd da d4 29 3c 3f 81 05 be
       -0.027969241 -0.037628308 0.010365689 -0.13037585
000030 5d 22 8e 3d 37 d4 e5 bd c2 10 d3 bd 27 dc ba 3c
       0.06940148 -0.112221174 -0.10305931 0.022810055
000040 9d 57 1e bd 8e 98 51 bd d1 f7 8f bc 67 f4 f3 bd
       -0.038657773 -0.051170878 -0.017574223 -0.119118504
000050 c7 83 6a bd 32 ae 17 be 98 5d 4f be 83 dc 4a bc
       -0.05725458 -0.14812544 -0.20250547 -0.012381676
000060 31 c5 cb 3d 06 74 2d bd f6 51 7e 3d 26 fe 11 3d
       0.09949721 -0.042346977 0.062089883 0.035642765
000070 57 7f 1b be 63 b4 8c bc 62 9e 29 be 5c 86 46 be
       -0.15185295 -0.017175859 -0.16564324 -0.19387192
000080 a9 a5 95 bd 1d 4d a4 bd 78 d0 93 bd 5d 68 91 bd
       -0.07306988 -0.08022521 -0.07217497 -0.07099984
000090 4c 76 42 bc 8f 33 de 3d 5c c9 62 3d c7 81 51 3c
       -0.0118690245 0.10849678 0.055367813 0.012787289
0000a0 cb fe 19 bb 1a 2c b7 bd e8 79 a6 bc 43 de 75 bd
       -0.0023497816 -0.089439586 -0.020321801 -0.06002642
0000b0 91 7a b3 3c 03 11 d7 bd d7 c3 99 bd db d3 4c be
       0.02190903 -0.105012916 -0.075080566 -0.20002691
0000c0 3c 96 96 bd ef 07 6f bd 1a 23 a5 be e4 b6 73 3d
       -0.07352874 -0.058357175 -0.32253343 0.05950059
0000d0 14 bb f9 bc a4 45 01 be a8 82 bd bc 3e 5f 38 bd
       -0.030484714 -0.12624222 -0.02313359 -0.045012705
0000e0 25 7c 02 3c b1 f6 0f 3d 43 64 7a bd a2 1e 05 be
       0.007964169 0.035147373 -0.061130773 -0.12999967
0000f0 50 80 fe 3c 75 ce b0 bd e2 dc 09 be bc 50 29 3d
       0.031067044 -0.086331286 -0.13463166 0.04133676
000100 09 29 e9 bd 98 49 c3 bd 06 14 66 be ab 39 d4 bd
       -0.1138478 -0.09535521 -0.22468576 -0.10362562
000110 86 1d b9 3b 78 54 a3 be 14 d9 b8 bc 4e f1 d5 bd
       0.0056492714 -0.31900382 -0.022564448 -0.10446416
000120 79 52 04 bc a9 17 60 be af 0c 6c ba be a8 da 3c
       -0.008076304 -0.21884026 -0.00090045755 0.02669179
000130 d3 8a 3b be 71 af 8c bd 0d 3d c1 bd 86 82 50 bd
       -0.18314676 -0.068694 -0.09435473 -0.050905727
000140 42 aa dc 3c 09 e4 27 be 18 43 80 bc e9 50 0a 3d
       0.026936654 -0.16395582 -0.015656993 0.03376857
000150 ea 31 46 bd d6 79 0c be a1 71 1c bd 54 9c a8 bd
       -0.048387446 -0.13718352 -0.038194302 -0.08232942
000160 69 ee 3a be f3 16 cb bd 70 62 da bd 3c 9b d2 3b
       -0.18255009 -0.099164866 -0.10663307 0.006427197
000170 1c f3 cb bd 8b 31 0c bd 5e 35 b8 3d a7 d5 b2 bc
       -0.09958479 -0.034226935 0.08994554 -0.021830393
000180 1c 83 c8 3b ab c5 b0 bd b3 5b 97 bd 76 63 48 3d
       0.006119145 -0.08631452 -0.07390537 0.04892298

weight f4 [100, 400]
000000 a7 23 9d bb cb fb 3e 3c ee 09 dd 3d df d8 b0 3c
       -0.00479551 0.011656712 0.107929096 0.021587787
000010 20 2f ac 3a 7a 74 af 3d 7d 68 91 3d 98 12 31 bb
       0.0013136603 0.08567138 0.07100008 -0.002701914
000020 46 18 f6 3c 64 9a 9a bc 1c de 8e 3c 4a 6c d7 3c
       0.030040871 -0.018872447 0.017439894 0.026296753
000030 33 0a 80 bc 99 2d e5 bc 20 37 32 bc 59 c0 ff 3c
       -0.015629863 -0.027975844 -0.010877401 0.031219648
000040 1d 6c 13 3d 0c ed db bc 44 4f c6 bd 69 4c 4d bd
       0.035991777 -0.026846431 -0.096830875 -0.0501217
000050 c8 4a 85 3a 55 95 df 3b 41 e8 0b bd 7e 51 c9 3c
       0.0010169381 0.0068232217 -0.03415704 0.024574991
000060 d1 7e c1 3c 2d 8a 3b bd a4 18 4d 3d db 39 57 3d
       0.023620041 -0.04578607 0.050072327 0.05254541
000070 20 31 c9 3c c0 26 3f 3c fe ac 10 bd 36 ed 28 3c
       0.024559557 0.011666954 -0.03532123 0.010310462
000080 73 41 30 bd b8 f8 84 bd c9 b0 02 bc 2a 1f 9c bd
       -0.043031167 -0.06492752 -0.007976719 -0.076231316
000090 00 4a 96 3c 70 3c 09 bd 95 64 2d bc 06 5b 9d bd
       0.018345833 -0.033504903 -0.010583063 -0.07683377
0000a0 bb f9 c0 bc b4 72 bb 3c 84 40 bf bc 88 99 da bd
       -0.02355658 0.022881843 -0.023346193 -0.10673815
0000b0 a9 03 bf bd 45 51 74 bd 03 9e 98 bd 19 f0 56 bd
       -0.0932687 -0.059647817 -0.07452013 -0.05247507
0000c0 64 92 69 bd 3c 85 4f bd 16 f8 8c bd b0 61 52 bd
       -0.057024375 -0.05066417 -0.06883256 -0.051362693
0000d0 e6 a4 a6 bd c6 e5 5e bd 88 ce d0 bb 16 3e 15 bc
       -0.08136921 -0.054418348 -0.0063722767 -0.009109041
0000e0 e0 41 06 3e 96 ab 24 bd 6a 51 69 bd 1f 5f 56 bd
       0.13111067 -0.0402027 -0.056962408 -0.05233681
0000f0 1e c7 94 3d d8 ec 2c 3d 5e ec c6 bb 1d dd 6a bd
       0.07264541 0.04221806 -0.0060706576 -0.057339776
000100 f3 c5 f5 bd 8d 76 88 bd 86 93 5a 3c 83 9f 2c 3d
       -0.120006464 -0.06663237 0.013340836 0.04214431
000110 c6 7c d1 ba 49 4e aa 3c 49 fd d4 bd 3e 25 79 bc
       -0.001598262 0.020789282 -0.10399873 -0.015206633
000120 5e ce 27 bd 3b 59 fd 3c 23 67 03 bd a0 f3 2c 3c
       -0.04096829 0.030926337 -0.03208078 0.010556132
000130 8e 71 48 bd 61 c7 87 bd e8 9f ff 3d 69 87 2e bc
       -0.04893642 -0.066298254 0.124816716 -0.0106524015
000140 8c ce 4a 3d a0 e5 b0 3c 18 34 03 3d aa c8 8b bd
       0.049513385 0.021593869 0.032032102 -0.06825383
000150 c5 a9 9b bd 35 e7 8f 3c 8f e8 8a 3d 0c f9 1c 3b
       -0.0760074 0.017566303 0.06782638 0.0023952154
000160 33 09 8c 3d 0e b7 68 bd 89 96 47 bd 0f cd 1f 3d
       0.06837692 -0.0568152 -0.048727546 0.03901392
000170 34 9b 93 bd 4e fc 51 bc 77 e1 b2 3d 34 30 c7 3c
       -0.07207337 -0.012816502 0.0873441 0.024314977
000180 6a b5 a7 bd 26 db 41 3d 9b c6 c3 3d 38 06 db 3c
       -0.08188899 0.047328137 0.09559365 0.026736364
000190 03 04 8b 3d 30 97 bc 3d d0 2a f6 3b 35 a5 48 bd
       0.067878745 0.09208524 0.007512428 -0.04898568
0001a0 92 3b 52 3d 87 ef 82 bb 0c 40 46 3d 8f dc 3a bd
       0.051326342 -0.003995839 0.048400924 -0.045620497
0001b0 06 b0 36 3d db 52 9a 3d fd 9d c9 3c 6f 9a af bd
       0.044601463 0.07535335 0.024611467 -0.08574378
0001c0 eb 95 37 3e ef b5 44 3d ff 47 ac bd 97 fd 0a be
       0.17928283 0.048025068 -0.0841217 -0.135733
0001d0 56 69 03 3c da cf fa 3d 61 dc 89 3c 5e 7c 89 3d
       0.0080207195 0.12246676 0.016828718 0.06713174
0001e0 c4 2f c0 ba a2 49 94 bd f2 cb 71 3d 54 14 40 bd
       -0.0014662673 -0.07240607 0.059032388 -0.046894386
0001f0 a5 b2 e5 3c 7f bd 39 3c f3 da 03 3d 14 89 63 3c
       0.028039286 0.011336683 0.032191228 0.013887662
000200 00 b6 39 3d 75 a9 08 be 3f 9b 6a 3d fa 51 ce 3c
       0.045339584 -0.13345893 0.05727696 0.025185574
000210 da ff 9a 3d 74 0c 50 bd 31 65 d2 bc 01 e1 82 3d
       0.07568331 -0.050793126 -0.025683017 0.06390572
000220 fc 90 d0 bd ca e9 32 be 9c 66 85 bd 73 88 70 bc
       -0.101839036 -0.17471996 -0.06513712 -0.0146809695
000230 3f b1 9f bc 01 9a e5 bc 95 79 9b 3c 61 df a5 3d
       -0.019493697 -0.028027536 0.018978873 0.08099247
000240 7d d3 df 3c 9c 81 84 3d be 9d 5f bd e4 2d 20 bd
       0.027322525 0.064700335 -0.054593794 -0.039106265
000250 e0 ef 05 be 4b 7d ae 3d 40 f4 2a bd ac 3e 0d bd
       -0.13079786 0.085199915 -0.04173684 -0.034483597
000260 bb 8a 84 bc 82 bd ee 3d 26 f1 41 3e 0e 57 64 bd
       -0.016179433 0.116572395 0.18939647 -0.055747084
000270 31 3a 53 bd 30 a8 2b bc a8 99 ff 3c 44 25 94 bd
       -0.051569168 -0.010477111 0.031201199 -0.0723367
000280 bd 24 50 bd e1 2a b4 3c ce 10 bf 3d 06 40 04 3d
       -0.050816286 0.021993103 0.09329377 0.03228762
000290 85 d9 86 bd 23 e3 4a bd 3a c3 a0 3d fd ed 87 3d
       -0.06584457 -0.04953302 0.078497365 0.066371895
0002a0 b8 8b c6 bc c5 83 b0 3c 70 e6 59 3d 78 6e a6 bd
       -0.024236545 0.021547208 0.053198278 -0.08126539
0002b0 74 51 08 be eb 5a 7a 3d b2 67 25 3c a6 8d 09 bd
       -0.13312322 0.061121862 0.010095524 -0.033582352
0002c0 ca 6a 01 3e 47 41 c4 3b 36 ab 85 3d f8 42 1e bd
       0.12638393 0.005989227 0.065267965 -0.038638085
0002d0 8d 90 44 3d d5 1d 94 bd 4d 6e e6 3b 76 7c 82 3e
       0.047989417 -0.072322525 0.007032192 0.2548558
0002e0 8a 37 7d 3e a7 db fa 3d 5e 2a b2 bc 50 70 50 bd
       0.24728218 0.122489266 -0.021748718 -0.05088836
0002f0 5c 38 d0 3d e6 ce 0d 3d 8d 7c 09 3d a9 d7 ba bd
       0.10167 0.03462114 0.033566047 -0.09123165
000300 3e 51 2b bd cb 7d 98 3c e3 79 6b bd d4 78 ff 3d
       -0.041825525 0.01861467 -0.057489287 0.12474218
000310 9b e4 de 3d d4 1a 6a bd c9 4c 58 3c 56 be 5e 3d
       0.10883447 -0.05715449 0.013201901 0.054380737
000320 0f 7a 11 3e 76 22 00 be 08 14 d2 bc 6f 64 57 3d
       0.14206718 -0.12513146 -0.025644317 0.052586015
000330 25 15 5e 3d a4 c7 00 3d 22 aa 9f bc 34 94 f9 3d
       0.054219384 0.031440392 -0.019490305 0.12186471
000340 7b 9e 57 bc 24 b6 dd bd ef aa 7f bd ae ae a0 bc
       -0.013160343 -0.10825756 -0.062418874 -0.019614544
000350 52 d6 d6 3c db bf b2 3c 8d 93 87 bc ec 58 24 bd
       0.026225243 0.02182 -0.01654985 -0.040123865
000360 b8 f5 11 bc d7 00 14 be cb 95 db 3d a1 27 5b bd
       -0.008908682 -0.14453445 0.1072193 -0.05350459
000370 e4 72 f5 37 e1 99 08 bd 0d d0 7d 3b da b4 27 3e
       2.9259776e-05 -0.033349875 0.0038728744 0.16377583
000380 8b 9e 73 3c 47 36 75 bc ea 53 76 3d ca 8a 91 bd
       0.014869343 -0.014966554 0.06013862 -0.0710655
000390 29 cb 68 3d 40 16 f4 3d f1 ab e0 3c 71 fb 92 3d
       0.056834374 0.11918306 0.027425738 0.07176865
0003a0 88 c3 4f bd 95 df a4 3c 17 31 04 3d dd 62 4f 3d
       -0.050723583 0.020126143 0.03227338 0.050631393
0003b0 4c 39 08 bc f2 93 f8 bb 96 22 e7 3d 17 1a c1 3d
       -0.008314442 -0.007585996 0.112858936 0.09428804
0003c0 5c 7d a2 3d 1d 38 38 3d 40 a8 29 3d 67 e6 c6 bc
       0.07934067 0.04497539 0.04142022 -0.024279786
0003d0 c7 36 12 3e a0 50 e9 bd dd 77 1f 3e 9d 87 c4 3d
       0.14278708 -0.11392331 0.15573068 0.09596179
0003e0 86 38 06 3d 42 85 bc 3d 34 18 81 bd 74 8f e6 bd
       0.03276875 0.092051044 -0.063034445 -0.1125783
0003f0 c4 81 e9 3c 88 8f ff bc 63 2c 04 3d d7 3e ee 3c
       0.02850426 -0.03119637 0.032268893 0.029082699

bias f4 [100]
000000 be b7 71 bc 6b 27 3e bc 8d b6 d6 bb fa 73 70 bd
       -0.01475328 -0.011606078 -0.0065525235 -0.058704354
000010 f8 82 39 3d 88 d7 89 bd 04 a1 2b 3d 92 70 88 bd
       0.045290917 -0.067305624 0.041901603 -0.06662096
000020 1c 18 53 bd 78 c1 05 bb 95 1e 76 3c 5b ad 02 3d
       -0.051536664 -0.0020409506 0.01502194 0.031903606
000030 b5 0b 28 bd ff 0e 1f 3d 30 0d 02 3b d0 f3 2f 3d
       -0.04102679 0.03883266 0.0019844286 0.042957127
000040 f5 5d 24 3d 2c 50 b6 bb 26 76 59 39 aa 47 ab bd
       0.040128667 -0.0055637565 0.00020738746 -0.08363278
000050 2d 0a 2c bc f1 07 61 3d ed 1f c3 3b 71 04 20 bd
       -0.010500473 0.054939214 0.0059547336 -0.039066736
000060 3c 9b 01 3d 82 0f 9b 3b c8 60 f5 3c 18 b1 1b bd
       0.031642184 0.0047320733 0.029953375 -0.038010687
000070 00 04 c6 3d 98 66 be bc 39 99 94 bd 1c 5d 07 bd
       0.09668732 -0.02324228 -0.072557874 -0.03304778
000080 79 36 0a bc 02 9b 3b 3c b7 ec 54 3b df c1 c4 3c
       -0.008435839 0.011450531 0.0032489726 0.024018226
000090 09 f3 55 bd 67 ec c1 3a 45 a5 3d bd 9e 8c 48 3c
       -0.05223373 0.0014795185 -0.04630019 0.012240557
0000a0 7e 29 53 3d 98 31 0a 3c 29 63 ec bc b8 27 07 b9
       0.051553242 0.008434676 -0.028855877 -0.000128894
0000b0 1d b9 17 3d 4c ff 28 bd bb 55 74 bd d3 8e d6 3d
       0.037041772 -0.041259095 -0.05965207 0.1047646
0000c0 bc 34 1c bd ad 68 50 3d 9a c6 b1 bd 53 50 23 bc
       -0.03813623 0.050881077 -0.08680458 -0.009967881
0000d0 73 b0 32 bd 4c 74 90 3c 59 9a ec bc d7 79 bd 3c
       -0.043625306 0.01763358 -0.028882192 0.023129387
0000e0 85 39 c6 bd 02 1a bb bc f0 e6 d9 3b 2b 42 db 3c
       -0.0967894 -0.02283955 0.0066498443 0.02676495
0000f0 2c cc 36 3d b3 9b 78 3d 2b 72 1b bc f7 38 96 3c
       0.044628307 0.06069536 -0.009487669 0.01833771
000100 d5 26 40 bd 34 3c b4 3c f5 c9 3f 3d 3f 5d e4 bc
       -0.046912033 0.022001363 0.04682346 -0.027876494
000110 57 a3 bb bc 6e 33 8b bd af f4 31 3d c5 4c 6d bd
       -0.022905035 -0.06796919 0.04344624 -0.05793454
000120 6f e1 96 bc f4 5b 9c 3d 71 92 d8 bc 7c 0e e7 3c
       -0.018418042 0.07634726 -0.026437016 0.028205149
000130 be 9e 5b 3d 37 4b 03 bd 54 e4 3f bc 20 ba 6a 3d
       0.053618185 -0.032054152 -0.0117121525 0.05730641
000140 77 5e 87 bc d1 85 82 bd 38 57 ba 3c 02 df 72 3c
       -0.016524537 -0.0637318 0.022746667 0.014823677
000150 90 96 9d bc 37 ec bf bb 40 78 1f 3d db 36 f8 bc
       -0.019236833 -0.0058570164 0.03893304 -0.030299595
000160 64 96 be 3d 4e 59 81 3c 57 7b 2f 3c db 1e e0 3c
       0.093060285 0.015789654 0.010710559 0.027358463
000170 07 3a 5c bd 2a 28 0e bd e9 7c 8a bc 05 d7 2d 3c
       -0.053766277 -0.034706272 -0.016905265 0.010610347
000180 5c 86 df 3c f6 79 c4 3d be b7 4d bd 60 e5 e0 3b
       0.027285747 0.09593575 -0.05022406 0.006863281

weight f4 [100, 400]
000000 3f 3a ae bd d6 92 02 bd 73 b7 f7 bd 8d 15 33 3d
       -0.08507203 -0.031878315 -0.12095537 0.043721724
000010 a4 af 5f 3d 0c cf 92 be af 9e df 3c c8 93 bb bd
       0.054610863 -0.2867359 0.027297346 -0.091590464
000020 ad fa 29 3d 0e 5a df 3d 30 88 c4 bd 2e e2 bf bd
       0.04149883 0.109058484 -0.09596288 -0.09369312
000030 e9 8e 62 be da a9 4b be 33 0b 6f 3b c5 d8 a2 3b
       -0.22124828 -0.19889012 0.003647518 0.0049696886
000040 5e 85 ad bd c6 51 93 3e 85 43 cb 3d a6 32 4e be
       -0.084727034 0.28773326 0.09924988 -0.20136508
000050 35 99 69 be 22 7b ab bd ab 9b 90 3e ce 72 6f be
       -0.2281235 -0.08373095 0.28243765 -0.23383638
000060 05 b2 a9 3d c0 20 81 be 33 ed e4 be 6e 74 f1 bd
       0.08285908 -0.252203 -0.4471222 -0.11789785
000070 33 02 77 3d 88 31 c4 3c 5a c1 0b bd 2b f0 21 3e
       0.06030483 0.0239494 -0.03411994 0.15814273
000080 ff 84 c3 3d f9 d0 86 bc 25 02 98 bd cb 7e b3 3d
       0.09546851 -0.016457068 -0.07422284 0.08764418
000090 90 e6 d1 3c b5 09 e8 3d 9c 65 63 3e 87 4d b2 3d
       0.025622636 0.113299765 0.2220673 0.087061934
0000a0 9d f9 09 bc ed 7d d4 bd ed be 84 3d 5e 9e 39 3e
       -0.008421329 -0.10375581 0.06481729 0.18126819
0000b0 8a 1e 61 3e 73 f4 e7 3d 1f 74 92 3d 54 f3 8c bd
       0.21984306 0.11325922 0.071510546 -0.06882349
0000c0 47 c1 66 3e 2c 29 a7 3c c9 4a 19 be 0b b6 1b 3e
       0.22534667 0.020405374 -0.14969935 0.15206163
0000d0 81 30 86 3e d4 87 d4 bd 4a ed 91 3e c4 18 3d 3e
       0.2620888 -0.1037747 0.2850135 0.18466479
0000e0 78 47 2d be 9e a9 09 bd c5 40 36 be 04 04 55 bc
       -0.16921794 -0.033609025 -0.17798145 -0.013001446
0000f0 8c cb 02 be 99 12 a0 3d 6f ba bb 3d f3 3c 84 be
       -0.1277296 0.07816047 0.09166419 -0.2582775
000100 b7 69 46 3e 9a bd 2c 3e ab 8f ab 3d e4 fc 1f 3e
       0.19376265 0.16869202 0.08377012 0.15623814
000110 0c 9e eb bd af eb 98 bc e2 01 1a 3e 80 ac ee 3d
       -0.115047544 -0.01866707 0.1503978 0.116539955
000120 78 df df 3d 5c 90 b2 3c 73 e8 1a be b8 54 f0 3c
       0.10931295 0.021797352 -0.15127735 0.029337272
000130 2b 2f 50 3e 9b f8 6b 3e ac 8a 13 3d 98 3b 65 3e
       0.20330493 0.23044054 0.03602092 0.22386014
000140 c2 eb c7 3d d5 02 81 bd 4a 51 be bd a6 a7 82 3d
       0.09761764 -0.06299368 -0.092928484 0.06379633
000150 62 89 5f be 17 da db bd 2a 50 55 be 4b f0 5a 3e
       -0.21829751 -0.10734957 -0.20831361 0.21380727
000160 2c a8 44 be d9 b3 bf bd cc 5a c6 3c cd 27 6b 3d
       -0.19204777 -0.09360475 0.024213217 0.057411004
000170 66 b0 3d bc 5e 7d bc bd b2 68 f5 bd 5d 8d 64 be
       -0.011577701 -0.092035994 -0.1198286 -0.22319551
000180 0a b3 47 3e c3 8e 2f be 71 06 03 3d fc 10 41 bd
       0.19501892 -0.17144303 0.031988565 -0.04713534
000190 d0 c1 7c be d2 29 a9 be f7 0f bf 3d c0 b2 bd 3d
       -0.24683309 -0.3303972 0.09329217 0.092626095
0001a0 50 62 1d be 06 2e fb 3d 2a 0c 2c 3d 58 1a 5b 3d
       -0.15369534 0.12264638 0.042003788 0.05349192
0001b0 b3 10 45 bd 25 fe e0 bd 57 6f 4f be 60 75 49 be
       -0.04811163 -0.10985974 -0.20257317 -0.19673681
0001c0 68 50 11 3d f6 74 cd bd 8d e2 3e 3d d4 d7 f1 ba
       0.035477072 -0.10032074 0.046602774 -0.0018451163
0001d0 e8 b4 ad 3d 6a 7d f3 bd 8c 27 02 be 3e 8b 3b bc
       0.08481771 -0.11889155 -0.12710398 -0.011446772
0001e0 7c 37 f9 bd 2b 7c eb 3d 94 91 a5 bd 0b 7e 50 3d
       -0.12168786 0.114982925 -0.080844074 0.050901454
0001f0 7e b5 b9 bd 12 2f 04 be 5f ef 85 be 1b a5 c3 3d
       -0.0906782 -0.12908581 -0.26159188 0.09552976
000200 0c 27 c2 bc cb f9 da 3d de 66 ec 3c 4e 56 b8 bb
       -0.02370026 0.106921755 0.028857645 -0.0056255227
000210 92 3a a9 bd 68 31 bb bc f2 d7 34 bd ed 35 6a bd
       -0.082631245 -0.022850707 -0.044151254 -0.057180334
000220 f8 52 34 3e 8f a4 8a 3d c2 4b fb bc b6 c5 39 bc
       0.17609775 0.06769668 -0.030675773 -0.011338642
000230 34 b3 81 3e 62 7e da 3c 79 e0 cf bd 67 86 5d be
       0.25332034 0.026671592 -0.10150237 -0.21633302
000240 ff 9f f2 3c c6 fe 50 3e 0b 7e 9e bd 10 17 5c bd
       0.029617308 0.20409688 -0.077388845 -0.05373293
000250 e8 20 0e bc 44 e2 88 3c 81 57 25 3c 01 9f 86 bd
       -0.008674838 0.016709454 0.010091663 -0.06573296
000260 bd ee 77 be c3 23 08 3e f6 7b 08 be 9c 8a de 3d
       -0.24212165 0.13294892 -0.13328537 0.108662814
000270 a5 a6 b2 bd 76 65 4d be 6e e9 eb bc ad c2 56 3d
       -0.08723191 -0.20058236 -0.028797831 0.05243175
000280 92 bd 0b 3d ba f8 05 3e 36 11 34 3e 9a 69 69 bd
       0.034116335 0.13083163 0.1758469 -0.056985475
000290 10 f0 2d be 1b 2f 74 bd 0e f9 b4 3e b8 e5 1d 3e
       -0.16986108 -0.059615236 0.35346264 0.15419662
0002a0 fa 72 1a 3e 86 1c c6 bd 9a d9 6a be 14 2b 10 3e
       0.15082923 -0.09673409 -0.22934571 0.14078933
0002b0 44 2b 2d 3d 82 da 81 be 96 64 97 bc 04 93 37 be
       0.04227759 -0.2536202 -0.01848058 -0.17927176
0002c0 24 44 d4 bd 6c 29 fb bd 2e 38 ae 3d 98 82 6e 3d
       -0.10364559 -0.1226376 0.08506809 0.058230013
0002d0 81 7e 93 be 17 51 43 3e 94 a6 da bb ac 92 66 be
       -0.28807452 0.19073902 -0.0066726897 -0.22516888
0002e0 79 e7 6e 3d 04 e9 0b 3c 8f e4 4a 3d 20 4c d3 3c
       0.05832622 0.008539442 0.049534377 0.025793135
0002f0 29 67 32 3e c9 26 97 3e ca 67 15 3e b2 20 33 3c
       0.17422165 0.29521778 0.14590374 0.010933088
000300 4c 92 a2 bd 3b 0b 26 bd 06 3c ca bc 4a 7e 8f 3d
       -0.0793806 -0.040538054 -0.024686825 0.070065096
000310 c9 ef 83 be 27 c1 73 bd 75 39 67 be 30 5b 47 be
       -0.2576888 -0.059510376 -0.22580512 -0.19468379
000320 de 03 c5 3b 11 d2 33 3e 00 c5 62 be fc a0 0e be
       0.006012424 0.17560603 -0.22145462 -0.13928598
000330 3a 53 ba 3d f4 a8 7a be 9e 4c 13 bd 09 04 90 bd
       0.090979055 -0.24478513 -0.03596174 -0.0703202
000340 79 f4 2d 3e 15 c9 ad 3d 2d ae a4 be 5d 22 c8 3c
       0.1698779 0.08485619 -0.32164136 0.024430448
000350 2d 98 05 be 69 e8 38 bd 05 22 10 be e0 cb 7f bd
       -0.13046332 -0.04514352 -0.14075477 -0.06245029
000360 9a e0 23 3e ac 4d 4c 3d 2c 24 83 be 11 ca 99 3e
       0.16003647 0.04987876 -0.25613534 0.30036977
000370 28 d3 3d 3d 9e ff f1 3d 9e e9 51 3e 7b bf c0 bd
       0.046343952 0.11816333 0.20499274 -0.09411522
000380 02 22 b5 3d 00 b8 d1 bd 4b d4 82 3e 45 78 8c 3d
       0.08844377 -0.10240173 0.25552592 0.06858877
000390 50 55 98 bd 5a 0f 32 3e c8 c7 24 bc 4a 09 b3 be
       -0.07438147 0.17388669 -0.010057397 -0.34968024
0003a0 77 4e 8e bd 6a 8d 9a 3d c4 2d 89 3e cb 06 19 be
       -0.0694856 0.07546504 0.2679273 -0.14943998
0003b0 d3 c2 01 be 34 4f 18 be 6f a5 8a 3e 30 de b0 3d
       -0.12671976 -0.14873964 0.2707934 0.08636129
0003c0 07 04 48 3e 40 26 64 bd a1 f0 49 3d b6 76 80 bd
       0.19532786 -0.05570054 0.049301747 -0.06272642
0003d0 00 a6 c5 bd e4 6c 9e bd 22 09 25 bd f2 38 39 bd
       -0.096508026 -0.07735613 -0.040291913 -0.045220323
0003e0 dd d7 3f 3e 22 8a d2 bd 11 78 a9 3c 66 1b 97 bc
       0.18734689 -0.10280253 0.020687135 -0.018445682
0003f0 e9 2c 88 3e 00 a6 8c 3e 70 3c 8a 3e e4 ba 33 be
       0.26596764 0.27470398 0.26999235 -0.17551762

bias f4 [100]
000000 b1 3b 50 3e 5f df ed 3d f1 77 a1 bc 44 39 9c 3d
       0.2033527 0.1161487 -0.019710513 0.0762811
000010 c6 1e 06 3e ac e6 58 bd 21 39 c4 3d 9a ac 88 bd
       0.13097677 -0.05295436 0.09581209 -0.06673546
000020 52 9c 1e 3e f5 9f 84 3d 6b b8 48 bb 0d 85 d0 bc
       0.15489319 0.06475822 -0.00306275 -0.025454069
000030 73 fd 7c 3e 90 99 83 3d ed 6e 20 bd db 11 b0 3d
       0.24706058 0.06425774 -0.039168287 0.08597156
000040 d4 b1 b5 3d 97 ac aa 3c 3c 3b 97 3d 27 28 cf 3d
       0.08871809 0.02083425 0.07384345 0.1011508
000050 27 b3 2e 3e 2b 25 1c 3c 6a 64 74 bc 99 5b 25 3d
       0.17060529 0.009530346 -0.014916519 0.040370557
000060 84 fc 3e 3e b4 82 3b 3e 12 bc 6e bb 1f d6 4b 3e
       0.18651015 0.18311578 -0.0036428017 0.199059
000070 f8 b8 df 3d 33 d3 95 3e 4e 53 c6 bd f1 57 56 bd
       0.10923952 0.29262695 -0.09683858 -0.05232996
000080 45 25 1c 3e fd 92 22 3e dd 06 31 3e 7f 20 9d 3c
       0.15248592 0.15876384 0.17287774 0.019180534
000090 c8 c5 63 3e 96 48 66 3e 69 72 3e 3e 4f da 2c 3e
       0.22243416 0.22488627 0.18598332 0.16880153
0000a0 8c 2f 73 3e 5d a6 15 3d 75 51 1d 3e 1f ee 13 3e
       0.23748606 0.03653561 0.15363105 0.14446305
0000b0 d8 a6 aa 3e d5 64 af bd b2 e5 cd 3d 8f aa 26 bd
       0.33330417 -0.08564154 0.100535765 -0.04069
0000c0 36 82 50 3e 0c ae 29 3d 49 87 a6 bd 75 a0 6c 3e
       0.20362172 0.04142575 -0.08131272 0.23108084
0000d0 fc 6e 37 3d 68 97 28 3d 1b dd e8 bb 77 fd ea 3c
       0.044783577 0.041160017 -0.007106436 0.028685315
0000e0 07 ba 1c be 65 dd b8 3c 7f df 30 3e 0f 92 81 bc
       -0.15305339 0.022566507 0.17272757 -0.015816716
0000f0 92 10 ad 3d 5c 9e a3 3d 8f 53 f4 3c 99 84 46 3e
       0.08450426 0.07989189 0.029825 0.1938652
000100 08 7a 5b 3e 82 f6 cc bd d6 22 19 3d ec 76 c4 3d
       0.2143327 -0.10007955 0.037386738 0.09592995
000110 7f 34 88 3d cc 2d 2d bd 5e 21 ad 3d bc 62 3a 3d
       0.06650638 -0.042280003 0.0845363 0.045504317
000120 ab 12 7b 3e 95 a1 6b 3d f2 b8 7b 3e ec a1 80 3e
       0.2451884 0.057527144 0.2458227 0.25123537
000130 a2 56 5b 3b db 57 03 3e a5 80 01 3d 9b d5 47 bd
       0.0033468385 0.12826483 0.031616826 -0.048787694
000140 0c f8 13 3e 14 63 34 bd 14 4d ef 3c 27 51 69 3e
       0.14450091 -0.0440398 0.029211558 0.22784863
000150 03 21 05 bc c2 56 20 3e da 48 e0 3d 77 19 5b 3d
       -0.008125546 0.15658095 0.10951395 0.053491082
000160 72 67 01 bb 22 d2 21 3d 96 44 1e 3e 69 54 91 bd
       -0.0019745496 0.03950704 0.15455851 -0.07096178
000170 2f 43 80 bc 1f 28 3d 3e 64 af 76 3e 3b 26 49 3e
       -0.015657036 0.18472336 0.24090344 0.1964349
000180 1b e8 5b 3e a2 e4 74 bc cc 41 39 3e 50 f8 52 3e
       0.2147526 -0.014947088 0.18091506 0.20602536

weight f4 [100, 400]
000000 04 20 89 3b 83 59 12 3d b1 71 af bd 0e bd 90 bd
       0.0041847248 0.035729896 -0.08566607 -0.07067309
000010 0a 83 d4 3d 5c a7 2d 3d 43 24 86 bd 2a 4b 8a 3d
       0.10376556 0.042395934 -0.06549885 0.06752618
000020 8e eb 20 bd 26 cb 6f bd 20 44 9c bd 9f 7f 8f 3d
       -0.039287142 -0.058543347 -0.07630181 0.07006764
000030 05 5b 74 bc 37 9f 0d bd fe 65 b3 3d dd 95 bd bd
       -0.014914279 -0.034575667 0.08759688 -0.092571
000040 1b a8 07 3d b4 d0 57 3c 21 5a 8c bb d5 01 ac bc
       0.033119302 0.013172317 -0.004283205 -0.020996967
000050 05 61 00 3d e3 c1 0a be 3b 95 b9 bd 3e 73 9c bd
       0.031342525 -0.13550524 -0.090616666 -0.07639168
000060 02 61 82 bc 54 28 9d bb 84 63 49 3d 14 58 00 3d
       -0.015915398 -0.0047960673 0.04916717 0.031333998
000070 b1 bb 02 be 64 fa 37 3d f2 da e2 bb b9 c0 a4 bd
       -0.12766911 0.044916525 -0.006923073 -0.080445714
000080 c1 0c c8 bd 8c f9 1a bc e0 f5 ab bd 29 76 d1 bd
       -0.097680576 -0.009458911 -0.08396506 -0.102276154
000090 a5 f3 95 3b 66 a8 10 bd 5b 7f 81 bd e3 82 8c bd
       0.004576164 -0.035316847 -0.06323119 -0.06860902
0000a0 f2 3b bc bd f5 1c cd 3d 96 0d 95 bc b7 23 9d bd
       -0.09191121 0.10015289 -0.018194955 -0.07672828
0000b0 ed bd 3d 3c 8a 5e 9f bd 98 a4 cf ba 87 82 73 3d
       0.011580926 -0.07781704 -0.00158419 0.059450652
0000c0 55 06 bf bc 38 93 35 bc 27 b6 c7 bc 40 15 88 3d
       -0.023318449 -0.011082463 -0.02437885 0.06644678
0000d0 05 ed 09 bd df 63 71 3d 8e 14 23 3d d6 07 cc bd
       -0.033673305 0.058933135 0.039814524 -0.09962432
0000e0 10 07 ea bb bf ff 11 3d 18 e5 45 3c f1 bc 7e 3d
       -0.007141955 0.03564429 0.012078546 0.062191907
0000f0 e4 d2 41 3b 18 43 db bd bd fb d5 3c 34 20 37 3d
       0.0029575163 -0.107061565 0.026121015 0.044708446
000100 a8 19 da 3d f4 03 11 3e 0d bb b0 bb 9b 54 a6 bc
       0.10649425 0.14161664 -0.005393392 -0.020304015
000110 ef 53 0d 3e bc e1 c7 bd 09 39 2f bc 14 89 f3 bd
       0.1380155 -0.09759852 -0.010694751 -0.1189138
000120 17 dd ad bc cc ae 22 3d 3f fa 9f 3d 08 a6 0e bd
       -0.021223588 0.03971748 0.078114025 -0.03482631
000130 81 5d 42 bd c0 cc 77 bd 2f 36 1d be 70 a4 16 be
       -0.047452454 -0.060498 -0.153527 -0.14711165
000140 34 d9 26 bd 72 b3 22 3d 75 f2 e5 bd d1 f4 b4 3d
       -0.040734485 0.039721914 -0.11227886 0.088357575
000150 8f 34 18 3b 75 89 1c 3c 44 c9 97 3d c1 e3 fa bd
       0.0023224687 0.009554257 0.07411435 -0.12250472
000160 be 28 1f bc d0 2a d9 3d 3e e5 0f bd b5 b3 d7 bc
       -0.009714304 0.10603869 -0.03513073 -0.026330808
000170 96 7c 22 3d 4f 29 b2 3b b2 ce fa 3c c5 24 b0 bc
       0.039669596 0.0054370533 0.030616138 -0.021501908
000180 6a 2c 41 3d f0 80 82 3d 73 11 62 bd 15 c5 fa bb
       0.047161497 0.06372249 -0.055192422 -0.0076528885
000190 8c 8a 23 3e bb cd ef 3d 9d 73 90 bd cf 93 2b bd
       0.1597082 0.11709162 -0.070533015 -0.041889008
0001a0 7f b0 d0 3d 6f 7a 3b bd 08 72 01 3e 12 59 13 3e
       0.10189914 -0.04577106 0.12641156 0.14389446
0001b0 29 04 14 3c ca 0a 06 3e c7 7d b8 3d 2a a9 33 3e
       0.009034195 0.13090053 0.09008365 0.17545
0001c0 ab 29 11 bd de 58 64 3c 8f 50 33 bd 9c 25 7b 3b
       -0.03544013 0.013937203 -0.043778 0.0038321977
0001d0 c2 11 8f bd 13 1d 2a 3e 55 8f 8b bd 6f 7c a2 bd
       -0.06985809 0.16612653 -0.06814448 -0.0793389
0001e0 7d b6 d8 3d ac 0c 0e be ef f5 90 3c c7 9d d8 bb
       0.10581682 -0.13872021 0.017695395 -0.0066106054
0001f0 27 69 43 3d 15 51 b8 3d 08 19 f9 3d 6e e6 13 3d
       0.047707703 0.0899984 0.121629775 0.036108427
000200 08 f3 ae bc d4 18 98 bd 77 88 ad 3d 57 03 28 3d
       -0.02135612 -0.074266106 0.08473294 0.04101881
000210 76 2c 79 3d 80 83 1a 3d a7 2d 47 3c 4a 9c e3 3d
       0.060833417 0.037723064 0.01215688 0.11113794
000220 ac 7c ad bd 5e 47 6c 3b 16 92 11 3b f1 29 68 bd
       -0.08471045 0.003605328 0.0022212318 -0.056680623
000230 ce 16 f1 bd ee b5 e4 3c 72 29 08 be af b1 60 bd
       -0.11771928 0.027918782 -0.1329706 -0.054856952
000240 75 c6 95 bc 5f 84 6d 3d 77 b7 a8 3d d7 46 45 3d
       -0.018283108 0.057987567 0.08238118 0.04816326
000250 28 2f 1e 3e eb ba f1 bb de ab 0e bd 9c 93 81 bd
       0.15447676 -0.0073770187 -0.034831874 -0.063269824
000260 65 70 e4 3d 56 8d 7b bd 9b 92 a0 3d 14 cc 16 3e
       0.1115425 -0.061414085 0.07840463 0.14726287
000270 f4 bf 97 bc 90 e7 93 3d 42 b9 8a 3d c7 c1 e2 3c
       -0.018524148 0.072219014 0.067736164 0.02768029
000280 0a 06 f8 3c c8 c5 08 be 1e 64 89 3c 15 33 e9 3b
       0.030276317 -0.13356698 0.016771372 0.007116685
000290 c2 3f 43 3d ae 48 d2 3d 5c b3 58 bc e0 35 51 3c
       0.047668226 0.10267769 -0.013226356 0.012769192
0002a0 26 22 d5 3c c2 b6 1d 3d d3 5e dd 3c 66 5e e4 3c
       0.02601726 0.03850437 0.027022755 0.027877044
0002b0 51 6e 0f 3d 02 4c 81 3d d2 e2 2f bd 47 6a a2 3c
       0.035017315 0.063133255 -0.042940922 0.019826068
0002c0 25 05 69 bd 97 64 c0 3d 57 5b 3b bd 23 e9 12 3e
       -0.05688967 0.09394186 -0.045741405 0.14346747
0002d0 01 eb 55 3d 1e b1 83 3d da b3 e9 bc f9 27 51 bd
       0.05222607 0.06430267 -0.028528143 -0.05106351
0002e0 46 10 d4 bb 20 a9 95 bd 26 0d 10 3e a7 e4 b8 bd
       -0.0064716665 -0.07307649 0.14067516 -0.09027987
0002f0 fd 67 c2 bd 3e fe c1 bb e6 ba 6a bb 5e cd e1 bd
       -0.094924904 -0.0059202006 -0.0035816967 -0.11025499
000300 95 2d b6 bd 5a f9 b2 37 9c 60 b1 3d bb d0 f3 bc
       -0.08895413 2.1335367e-05 0.08661005 -0.029762616
000310 3f 4c b7 3d e9 13 c1 3c db 9c 6c 3d 43 0a 11 3e
       0.0895009 0.023569064 0.057766777 0.14164071
000320 63 2c e3 bc da 58 10 bd b6 45 67 3d bc c9 48 3c
       -0.027731126 -0.035240985 0.056462966 0.0122551285
000330 31 64 0d be e4 b3 b1 3d 6b e3 eb 3d c7 d4 18 bd
       -0.13807751 0.086768895 0.11517986 -0.037312295
000340 1c b6 a8 bc 1e d7 10 be dd d8 88 3c 64 62 e5 bd
       -0.020594649 -0.1414456 0.016704971 -0.11200407
000350 d3 d7 15 3d e8 aa a0 bd 6e 1e fc 3d ed 1f 90 bd
       0.03658278 -0.07845098 0.123104915 -0.07037339
000360 54 38 e0 bd 48 b6 28 bc b9 e1 e9 3d bd 3d 21 be
       -0.10948244 -0.0102973655 0.11420006 -0.15746208
000370 e4 0c 41 3d 65 3c 83 bd af 2e 54 bd 4c b9 3f bd
       0.047131434 -0.06408004 -0.051802333 -0.046807572
000380 4a 68 07 be d4 b0 a4 3d c6 dc 61 bd 86 67 a0 bd
       -0.13223377 0.0804154 -0.055142187 -0.078322455
000390 74 43 90 bc 2a e3 99 bd d0 6b 0c 3d 7e 3d da 3d
       -0.01761029 -0.07514031 0.034282506 0.1065626
0003a0 7b 4f 5d bd 4d 4d db bd 3c 0b 10 bd 7a cd 2a 3d
       -0.054030877 -0.10708103 -0.035166964 0.041699864
0003b0 f0 d2 ac 3d 96 c6 67 3d b6 48 e7 bc e9 e7 16 be
       0.08438671 0.05658587 -0.028232913 -0.14736904
0003c0 39 f6 04 3c e1 2b 7f bd 89 40 b4 3d 5c b1 a8 3d
       0.008115345 -0.062297706 0.088013716 0.082369536
0003d0 65 98 39 3e 2b 28 1a be 1e 19 1c bd 94 4c 3d be
       0.1812454 -0.15054385 -0.03810989 -0.18486243
0003e0 bc 94 0d 3d 26 74 0b bd 48 0f f4 bc 98 10 94 3d
       0.034565672 -0.034046315 -0.029792443 0.072297275
0003f0 b7 d7 92 bb 43 60 cf bd d3 82 d7 bd 0a 08 26 3d
       -0.0044812816 -0.10125782 -0.105229996 0.04053501

bias f4 [100]
000000 86 b1 88 bd a8 b8 15 3d 5d 26 b1 bd 8a e6 fd bc
       -0.06674485 0.036553055 -0.08649895 -0.030993719
000010 39 2a 41 3c e9 6e 11 be 01 1c 6a bd 1f a9 9d 3d
       0.011789852 -0.14202465 -0.057155613 0.07698273
000020 6e a2 ca bd 55 a8 dc bd 15 3f db bb af 6e 1f bd
       -0.09894262 -0.10774294 -0.0066908696 -0.038923915
000030 4d 75 32 3d 20 f3 61 bd 44 29 ac bc ee b2 87 ba
       0.043568898 -0.055163503 -0.02101577 -0.0010353008
000040 c9 61 db bd 34 78 ca 3b 0f f5 a8 bc 88 b2 e8 bd
       -0.107120104 0.00617888 -0.020624666 -0.11362177
000050 47 3f 49 3d a0 93 47 bd c9 9d 97 bd ed 28 36 3d
       0.04913261 -0.04872477 -0.07403142 0.044472624
000060 1b fa a2 3a 1a 4a 7d 3b b6 5f f5 bd d7 e4 0a bd
       0.0012434156 0.0038648904 -0.11981146 -0.033909645
000070 53 f9 38 bd 86 b8 eb 3c 77 15 1b be 90 bd 1e be
       -0.04515965 0.028774511 -0.15144907 -0.15502
000080 f2 d1 9c bd a3 07 84 bc fb 62 fb bc a5 84 a5 bd
       -0.076572314 -0.016116923 -0.030686846 -0.080819406
000090 db 44 5a 3d 50 7b c5 3d c1 36 88 b7 a3 d2 be 3d
       0.053288322 0.096426606 -1.623796e-05 0.093175195
0000a0 99 ba b7 bd 6c 8f 09 bd ca a9 91 3c 7b b5 8f bc
       -0.089711376 -0.033584043 0.017781157 -0.017542591
0000b0 f9 88 1f 3d 9e 9b 49 be e3 16 b8 bd b4 88 72 bd
       0.038948987 -0.1968827 -0.0898874 -0.0592124
0000c0 df 18 6d bd d5 d3 b1 bd 06 c1 c3 bd 66 02 66 bc
       -0.057885047 -0.08682982 -0.09558301 -0.014038658
0000d0 d8 4e 2a bd 54 b1 43 be d4 bd 1d bc bf 62 17 3d
       -0.041579098 -0.19110614 -0.009627778 0.036959406
0000e0 e2 a5 11 be 81 d2 17 bd f5 4e d5 bd 74 14 60 bd
       -0.14223436 -0.037065987 -0.104154505 -0.054707006
0000f0 ec f8 a0 bb 5e 34 40 bb 5f 2e d9 bd 62 9a 8b 3d
       -0.0049124863 -0.0029328088 -0.10604548 0.068165556
000100 7e f4 bc bd 75 69 92 3d f5 c6 85 bc 2e b3 a5 3c
       -0.09226321 0.071490206 -0.016330222 0.020227041
000110 2b aa 93 3c 18 16 c4 bd b6 bf 90 3b 7a 61 5e bd
       0.018025478 -0.095745265 0.004417385 -0.05429218
000120 b4 8d 36 bc 6b e1 c9 bd ec 6b 81 bd b6 c6 8b 3c
       -0.011142183 -0.09857448 -0.063194126 0.017062526
000130 82 62 2a be 39 4d 09 be a1 e2 c9 bd 36 57 d6 3b
       -0.1663914 -0.13408364 -0.09857679 0.006541158
000140 28 ff 7e bc ac 63 d6 bd d3 aa 6c 3c 25 0a 23 3d
       -0.015563764 -0.1046823 0.014445025 0.039804596
000150 06 2c 08 bd 14 2a 00 bd 8c ad 8b 39 a5 0e 1d be
       -0.03324511 -0.03129013 0.00026641448 -0.15337618
000160 d4 1a 00 be a8 80 61 3d 53 e9 4c bc 71 ee 64 be
       -0.12510234 0.055054337 -0.012506801 -0.22356583
000170 f6 62 3b be ec e6 8a bc 56 f7 02 3d 25 c9 26 3d
       -0.1829947 -0.016955815 0.03197416 0.04071917
000180 dc 25 c0 3b af 08 74 bd cb c3 db bd 68 57 8b 3c
       0.005863888 -0.059578594 -0.10730704 0.017009452
