gru-sentiment/models/G_pytorch_gru.pt (torch, 730255 bytes, 10 tensors)

weight_ih_l0 f4 [300, 300]
0	0x3dc98653	0.098400734
1	0xbe44c718	-0.19216573
2	0x3e31a5cd	0.17348404
3	0xbd12dcad	-0.035854984
4	0x3dd09a63	0.10185697
5	0x3e90e7a1	0.2830172
6	0xbde6d14d	-0.1127039
7	0x3d07bcf5	0.033139188
8	0xbcc01bb2	-0.023450706
9	0xbdb6402a	-0.08898957
10	0x3da7d6c8	0.08195263
11	0x3db149e2	0.0865667
12	0xbcc7f91f	-0.024410782
13	0xbdb04897	-0.086075954
14	0x3dacfd13	0.084467076
15	0xbcd8affe	-0.026451107
16	0x3d98fe04	0.07470325
17	0x3d9eb32e	0.077490196
18	0xbe94c8e8	-0.2905953
19	0x3d41e66c	0.047338888
20	0x3c826a37	0.015919788
21	0xbdbbf810	-0.091781735
22	0x3e0b9443	0.13630776
23	0x3d9977e2	0.07493569
24	0x3de5e4f2	0.112253085
25	0x3d2cb369	0.042163286
26	0xbd58eeec	-0.05296223
27	0x3b53c289	0.0032311997
28	0xbdae00c8	-0.08496243
29	0xbd8ba4e8	-0.06818563
30	0xbd40528b	-0.04695372
31	0x3d6d5c82	0.05794955
32	0x3e22a21d	0.15882154
33	0x3e686c0a	0.22697464
34	0x3e07190a	0.13193145
35	0x3db01147	0.085970454
36	0x3b2dcd4f	0.0026520079
37	0x3d9ac491	0.07557023
38	0xbd7ebb49	-0.062190328
39	0xbd185d52	-0.037198372
40	0x3db0e96a	0.0863827
41	0x3d8cfc50	0.06884062
42	0xbe3459d7	-0.17612396
43	0x3e42fc8c	0.19041651
44	0x3e2b5817	0.16732822
45	0xbc82f0d7	-0.015983982
46	0x3e0d5e82	0.13805583
47	0x3d116fb5	0.035506923
48	0x3d6e426a	0.058168806
49	0xbdad9199	-0.08475036
50	0xbe1faf00	-0.15594101
51	0xbc428b53	-0.011874038
52	0x3dd20679	0.10255141
53	0xbdd21a9f	-0.10258984
54	0x3d831dcc	0.06402168
55	0x3e0c5039	0.13702478
56	0x3da2bd3f	0.07946252
57	0xbe1d8c4e	-0.15385553
58	0xbbe5cc7c	-0.007012902
59	0x3e1cf130	0.1532638
60	0x3e2be1df	0.16785382
61	0x3cf07dc5	0.029356847
62	0xbd8fbe6e	-0.070187435
63	0xbe086ce9	-0.13322796
64	0xbe871d72	-0.26389652
65	0x3e0e521b	0.13898508
66	0x3df5a2f8	0.119939744
67	0xbdb33b4c	-0.08751544
68	0xbe1c48c4	-0.15262133
69	0xbdc81ee7	-0.09771519
70	0xbd418463	-0.047245394
71	0x3cfdc746	0.03097881
72	0x3d3efd88	0.046628505
73	0x3d998426	0.074959084
74	0xbd2721bb	-0.040803652
75	0x3dc057b7	0.0939173
76	0xbde2d23c	-0.11075255
77	0x3be4bea5	0.0069807344
78	0x3dead817	0.11466997
79	0x3cd88beb	0.026433906
80	0x3db66d1f	0.08907532
81	0x3d93815f	0.0720241
82	0xbc5d55dd	-0.013509241
83	0xbe2a68ca	-0.16641536
84	0x3d4630f9	0.048386548
85	0x3de35255	0.11099688
86	0xbd999051	-0.07498229
87	0xbda7f997	-0.08201902
88	0xbd524fe8	-0.051345736
89	0xbe1ba06f	-0.1519792
90	0xbdef6206	-0.11688618
91	0x3c92ce6a	0.017920692
92	0xbcd657b2	-0.026164863
93	0x3d5f264f	0.054479893
94	0xbdc46129	-0.09588844
95	0x3e27a2e6	0.16370735
96	0x3ca818cd	0.020519638
97	0xbd266d62	-0.04063166
98	0xbcf31194	-0.029671468
99	0xbdb5bafc	-0.08873555
100	0xbe10262a	-0.14077058
101	0x3d99dc90	0.07512772
102	0xbddfacf8	-0.10921663
103	0x3d95a385	0.073065795
104	0x3e124abe	0.14286324
105	0x3db5a119	0.088686176
106	0x3d68f5f9	0.056875203
107	0x3d479007	0.04872134
108	0x3e26d605	0.1629258
109	0x3e0e6da2	0.13909009
110	0x3c8f87f6	0.017520886
111	0xbe132477	-0.14369379
112	0xbdb62d22	-0.08895327
113	0x3d3a007e	0.045410626
114	0x3cb61dee	0.022231068
115	0x3de29bcf	0.110648744
116	0xbe3dd01e	-0.18536422
117	0xbd008e11	-0.031385485
118	0x3d043fb7	0.032287326
119	0x3be481cf	0.006973482
120	0xbd419b65	-0.047267336
121	0xbd56cc08	-0.052440673
122	0xbbb7f7a8	-0.0056142397
123	0xbe05aa98	-0.13053358
124	0xbc84212c	-0.016129099
125	0x3e16897f	0.14700888
126	0x3ce27b9f	0.027646838
127	0x3e2c2d27	0.16814099
128	0xbddef713	-0.108869694
129	0x3d93b47f	0.07212161
130	0x3d3d52ff	0.04622173
131	0xbe5a0637	-0.21291433
132	0x3d1ac1e8	0.03778258
133	0x3d5b57af	0.05355042
134	0xbd9b936a	-0.075964764
135	0x3ddca46b	0.10773548
136	0x3dc79349	0.09744889
137	0xbcc1b1f1	-0.02364442
138	0xbe08b4a2	-0.13350156
139	0xbdaeed50	-0.085413575
140	0xbc1de8c3	-0.009638014
141	0x3da09a34	0.07841912
142	0xbd7c68bb	-0.061623316
143	0x3ee52bb3	0.44759902
144	0xbdfbbe87	-0.122921996
145	0x3e2cbbe6	0.16868553
146	0x3c0f5cb0	0.008750126
147	0x3e09fcfd	0.13475414
148	0x3e447c30	0.19187999
149	0xbd2a77cb	-0.04161815
150	0xbc94fca1	-0.01818687
151	0xbd34a04b	-0.04409818
152	0x3e35b995	0.17746575
153	0x3dc7eadf	0.09761595
154	0x3e24ea92	0.16105106
155	0x3de05faa	0.109557465
156	0xbc054072	-0.008133041
157	0x3c948f26	0.018134665
158	0x3c5448c6	0.012956804
159	0xbe447a91	-0.1918738
160	0xbe01e2ff	-0.12684248
161	0x3d1abea7	0.037779476
162	0xbd82c7b5	-0.06385747
163	0x3d36a34c	0.044589326
164	0x3d241074	0.040054753
165	0xbd8a4864	-0.06752089
166	0xbdab2515	-0.08356682
167	0xbe06c88b	-0.13162439
168	0xbe83dc1e	-0.25753874
169	0x3dc06496	0.09394185
170	0xba9c01ad	-0.0011902355
171	0xbde9fc25	-0.11425046
172	0x3dd4fca7	0.10399752
173	0xbdb149e8	-0.086566746
174	0x3dd282ad	0.10278831
175	0x3bbc10c5	0.005739304
176	0xbd55e423	-0.05221952
177	0x3be1bb01	0.0068887477
178	0x3e35fc37	0.17771994
179	0xbe045128	-0.12921584
180	0x3cc42904	0.023945339
181	0xbd33e1ec	-0.043916628
182	0x3e3fddda	0.18736973
183	0xbe245cca	-0.16051021
184	0xbda6da80	-0.08147144
185	0x3ebb8648	0.36625886
186	0x3cf731ad	0.030175054
187	0xbd76f9dd	-0.060296882
188	0xbddc4a06	-0.10756306
189	0xbe2811ed	-0.16413088
190	0xbb928538	-0.0044714473
191	0x3e045733	0.12923889
192	0x3e17a2a0	0.1480813
193	0xbbd54b2d	-0.006509206
194	0x3d34eff2	0.044174142
195	0xbd82e5a0	-0.06391454
196	0xbe23ee7a	-0.1600894
197	0xbcbc130d	-0.022958303
198	0xbd256757	-0.040381756
199	0x3cbe44d8	0.023226187
200	0xbbf41022	-0.0074482122
201	0x3d847da9	0.0646928
202	0x3e0c5cc8	0.13707268
203	0x3c8cac5f	0.017172037
204	0x3df3fd69	0.119135685
205	0xbcf37d6a	-0.029722888
206	0xbe530635	-0.20607837
207	0xbd92352b	-0.07139047
208	0xbe01bdc1	-0.12670042
209	0x3e358c6b	0.17729346
210	0xbafea3f3	-0.0019427523
211	0x3da09c72	0.078423396
212	0x3e0ce832	0.1376045
213	0xbde2db02	-0.11076929
214	0x39b07ce3	0.00033662384
215	0xbe79ce2d	-0.24395056
216	0xbdbb6f20	-0.09152055
217	0xbcb85413	-0.022501027
218	0xbdd92032	-0.10601844
219	0xbd7652b5	-0.06013747
220	0x3d5a7de3	0.05334271
221	0x3dc32fe2	0.09530617
222	0x3d9d5b4b	0.076834284
223	0x3de00688	0.10938746
224	0x3dba292e	0.09089886
225	0x3e50653f	0.20351122
226	0xbdb45517	-0.08805292
227	0xbe418b4b	-0.18900792
228	0x3ca29f6c	0.019851409
229	0x3ab2f51c	0.001365337
230	0xbe8a6d1e	-0.27036375
231	0xbe0aec8b	-0.13566796
232	0x3d8af2d7	0.06784599
233	0xbcfec23c	-0.031098478
234	0xbd25def8	-0.040495843
235	0x3e0d7f60	0.13818121
236	0xbd644afb	-0.05573557
237	0x3d86d54c	0.06583652
238	0x3d3516cd	0.044211198
239	0x3dc9a562	0.098459974
240	0xbbe42ddf	-0.006963476
241	0x3e179d8a	0.1480619
242	0xbc993575	-0.018702248
243	0x3d37d763	0.044883143
244	0x3e17fc4f	0.14842342
245	0xbe9da4c9	-0.30789784
246	0x3e0b0d72	0.13579348
247	0x3c195b34	0.009360123
248	0xbd081b18	-0.033228964
249	0xbc3593b0	-0.011082575
250	0xbe15b0ca	-0.14618221
251	0xbdc5723c	-0.09640929
252	0xbe1611d7	-0.14655243
253	0x3e695219	0.22785224
254	0xbb5d4496	-0.0033762804
255	0xbe109a2a	-0.14121309

weight_hh_l0 f4 [300, 100]
0	0xbc8ac055	-0.016937414
1	0xbd7c500a	-0.06159977
2	0x3c926708	0.017871395
3	0x3e382439	0.17982568
4	0xbd729055	-0.059219677
5	0x3e35d0a8	0.17755377
6	0x3afcaa93	0.0019276909
7	0xbd192597	-0.037389364
8	0xbb6d763e	-0.0036233808
9	0xbdab7659	-0.083721824
10	0x3c97e2d5	0.01854078
11	0x3c20bf0f	0.009811177
12	0xbdc1d843	-0.09465077
13	0x3da4e218	0.080509365
14	0xbcc7c77a	-0.02438711
15	0xbd234a39	-0.039865706
16	0x3d5c63bd	0.053806055
17	0x3dcdb57e	0.100443825
18	0xbd917376	-0.071021006
19	0x3d75e4a2	0.060032494
20	0xbc1993ba	-0.0093736
21	0x3e3cf954	0.18454486
22	0x3e03c7ab	0.12869136
23	0x3dcdb87e	0.10044955
24	0xbd87ce56	-0.06631152
25	0x3d452db4	0.04813929
26	0xbded2d81	-0.11580945
27	0x3dbe9ac9	0.09306867
28	0x3c8c3a81	0.01711774
29	0x3c08bdf3	0.008346069
30	0x3d8d580b	0.069015585
31	0xbe062d50	-0.13103223
32	0x3d8f0013	0.06982436
33	0xbd8ae6ee	-0.067823276
34	0x3d807de3	0.06274011
35	0xb9c6c180	-0.00037909672
36	0x3ca0a9d3	0.019612228
37	0x3e3c8cd6	0.184131
38	0x3dc715e4	0.09720972
39	0x3cbbe55f	0.022936521
40	0xbca23e12	-0.019804988
41	0x3be5d5b2	0.007014
42	0xbcdedd8c	-0.027205251
43	0x3d29de29	0.041471634
44	0xbc267b4f	-0.010161235
45	0xbe0365d1	-0.12831809
46	0xbde844e2	-0.11341263
47	0xbd2e6f99	-0.042586897
48	0xbdb9498b	-0.0904723
49	0x3ce7390b	0.028225442
50	0x3d854b10	0.06508458
51	0xbd547816	-0.051872335
52	0x3dbb0f4c	0.09133777
53	0x3ddd96bd	0.10819767
54	0x3d5280e6	0.05139246
55	0x3db8f6ea	0.0903147
56	0x3c8cc801	0.017185213
57	0x3dd42b77	0.10359853
58	0xbc3d051d	-0.011536864
59	0xbd09fcb4	-0.033688262
60	0xbbe49640	-0.006975919
61	0xbdfd55fe	-0.12369917
62	0x3c4c449a	0.012467528
63	0x3dddcbf3	0.10829916
64	0xbbe21500	-0.006899476
65	0x3cb39009	0.021919267
66	0xbe1e4a5d	-0.15458055
67	0xbd340708	-0.043952018
68	0xbe022208	-0.12708294
69	0xbd6ede85	-0.05831768
70	0x3d976cf5	0.07393829
71	0x3d81e276	0.06342022
72	0xbbf4f5e9	-0.007475604
73	0x3e09b02e	0.13446113
74	0xbd0142f6	-0.031558
75	0xbe07007f	-0.13183783
76	0x3e0ac066	0.13549957
77	0xbd83a114	-0.064272076
78	0x3c1c1692	0.009526866
79	0xbd41fa43	-0.04735781
80	0xbdcbedea	-0.09957488
81	0x3b502e8c	0.0031766025
82	0x3dc60c3f	0.096703045
83	0xbd2f53df	-0.042804595
84	0x3d39fa49	0.045404706
85	0xbcbbd434	-0.022928335
86	0xbde0d49b	-0.10978051
87	0xbd69180c	-0.0569077
88	0xbd4cd7d7	-0.05001053
89	0x3da52da0	0.08065343
90	0xbcc54d3d	-0.024084682
91	0x3d0599d9	0.032617424
92	0x3d87eafb	0.06636616
93	0x3d845e4f	0.064633004
94	0x3d3109d8	0.04322228
95	0x3d65caa4	0.056101456
96	0xbdcded27	-0.10054999
97	0xbda5c458	-0.0809409
98	0x3d046681	0.032324318
99	0x3d8f64f8	0.0700168
100	0x3db0068c	0.08594999
101	0x3d8e654f	0.06952917
102	0x3d437e51	0.047727887
103	0x3d794777	0.06085917
104	0xbd4947d8	-0.04914078
105	0x3e090652	0.13381317
106	0xbd03012f	-0.03198355
107	0xbc077923	-0.008268627
108	0x3d961b0e	0.07329379
109	0xbd9c980e	-0.0764619
110	0x3dce220a	0.10065086
111	0x3cda99e0	0.026684701
112	0xbdc75294	-0.097325474
113	0xbba8d73c	-0.005152611
114	0xbce02988	-0.027363554
115	0x3d83ebbd	0.06441448
116	0x3c10cc41	0.00883776
117	0x3dbb4115	0.09143273
118	0xbd472765	-0.048621554
119	0x3e1da968	0.15396655
120	0x3e0bf5a8	0.13667929
121	0x3dc12826	0.09431486
122	0xbca9fe62	-0.020751182
123	0x3d26d5b4	0.040731147
124	0x3d0b544c	0.03401594
125	0xbc24f062	-0.010067077
126	0x3da0129e	0.07816051
127	0x3d18f15b	0.03733955
128	0xbd799b86	-0.060939334
129	0xbd3feab6	-0.046854697
130	0x3cf41aad	0.029797876
131	0xbcb768ba	-0.022388805
132	0x3caac062	0.020843688
133	0xbcba576e	-0.022746768
134	0x3d56fa42	0.05248476
135	0x3dd5ee1a	0.10445805
136	0xbd494628	-0.04913917
137	0xbe1489d4	-0.14505702
138	0x3d8b3e03	0.06798937
139	0x3ce88969	0.028385835
140	0xbd7cf873	-0.061760377
141	0xbd7d2cb4	-0.06181021
142	0xbc5d4615	-0.013505478
143	0xbda809fd	-0.0820503
144	0xbc9d9f20	-0.019240916
145	0x3ce6098b	0.028080722
146	0xbdf38f9f	-0.11892628
147	0xbc8832ac	-0.016625725
148	0xbe0d67ce	-0.1380913
149	0xbdb4ecde	-0.08834241
150	0x3d2b9ce4	0.04189767
151	0xbc9a5282	-0.01883817
152	0x3e41d3f5	0.18928511
153	0xbdee29f0	-0.11629093
154	0xbdefa908	-0.11702162
155	0xbd68543b	-0.056720953
156	0xbd110350	-0.03540355
157	0x3cf3a36d	0.029741013
158	0xbd5ac35e	-0.053408973
159	0x3dcecb2d	0.100973465
160	0x3c9c33fb	0.019067755
161	0xbda46467	-0.08026963
162	0x3d36c7a8	0.044624
163	0xbcc370d5	-0.023857513
164	0x3d85cff4	0.065338045
165	0x3da3a6f1	0.07990826
166	0x3dc37abb	0.09544893
167	0x3c11fb57	0.008910022
168	0xbdea48ef	-0.11439692
169	0x3d7ec694	0.062201098
170	0xbe0ec855	-0.13943608
171	0x3d2a5796	0.041587435
172	0xbda0dee8	-0.07855016
173	0x3dd367b0	0.10322511
174	0xbe063e10	-0.13109612
175	0x3dab9d1b	0.08379575
176	0x3e1370f2	0.14398554
177	0x3d9e82d2	0.07739796
178	0x3d4dd7e4	0.050254717
179	0xbcd61da1	-0.026137175
180	0xbdb2ccb3	-0.087304495
181	0xbd03e951	-0.03220493
182	0x3d467ab0	0.048456848
183	0xbd22d19f	-0.03975069
184	0xbd2e1300	-0.04249859
185	0xbdfc6f11	-0.12325872
186	0x3b4bc6bf	0.0031093804
187	0xbc81a23c	-0.01582443
188	0xbdb45768	-0.08805734
189	0xbd920400	-0.07129669
190	0x3d62740c	0.055286452
191	0x3db88276	0.090092584
192	0xbdf55ce2	-0.119806066
193	0xbdac15a5	-0.08402566
194	0xbd5c7d73	-0.053830575
195	0xbdaf6f42	-0.085661426
196	0xbd88df14	-0.06683174
197	0x3dc88972	0.097918406
198	0x3def9b03	0.11699488
199	0xbd18c037	-0.037292685
200	0xbe28d3fb	-0.16487114
201	0x3ceb607c	0.02873253
202	0x3d1c95cb	0.03822879
203	0x3cd182c8	0.025575057
204	0x3c63e16a	0.013908723
205	0xbdfbf60c	-0.12302789
206	0x3d10a707	0.03531554
207	0x3e03f5aa	0.12886682
208	0x3df5b870	0.11998069
209	0xbdaf542f	-0.085609786
210	0xbd75be65	-0.059996027
211	0xbdc85d93	-0.09783473
212	0x3ccc375a	0.024928737
213	0x3d22b137	0.039719786
214	0xbd217791	-0.039420668
215	0x3c9ef015	0.01940159
216	0x3d2eb1c4	0.04265
217	0x3d13fc3d	0.036129225
218	0xbdf95027	-0.12173491
219	0x3d6a7ce4	0.05724801
220	0x3e1588ce	0.14602968
221	0x3dbb265d	0.091381766
222	0xbcbb34ac	-0.022852264
223	0x3d945faf	0.07244813
224	0xbc997294	-0.018731393
225	0x3d4db89d	0.05022489
226	0x3abcc5e2	0.0014402235
227	0x3db051c3	0.08609345
228	0xbd0e3b03	-0.034724247
229	0xbd144e57	-0.036207523
230	0xbb7160f3	-0.0036831468
231	0xbd964252	-0.07336868
232	0x3cd44dc7	0.025915993
233	0xbd75c47e	-0.060001843
234	0x3df6ec07	0.120567374
235	0x3e0072ec	0.12543839
236	0xbb8f04c4	-0.004364582
237	0x3dc65cc1	0.0968566
238	0x3dc1cb58	0.09462613
239	0x3daafa6a	0.08348544
240	0xbd6f469b	-0.058416944
241	0x3d26f3da	0.0407599
242	0x3d8263e8	0.06366712
243	0x3b9a75c1	0.0047137444
244	0x3d1d83da	0.03845582
245	0xbd8a8d31	-0.067652114
246	0x3c1ffe5c	0.009765234
247	0xbcfe45df	-0.031039177
248	0x3d0dc51d	0.03461181
249	0x3d84158d	0.06449423
250	0x3d9b29c9	0.07576329
251	0x3cd6f48d	0.026239658
252	0xbdd2787d	-0.102768876
253	0xbc4f55f8	-0.012654774
254	0xbcac3fd9	-0.021026539
255	0xbd3ce141	-0.046113256

bias_ih_l0 f4 [300]
0	0xbe070fc6	-0.13189611
1	0x3dd97221	0.106174715
2	0x3d32a9fb	0.043619137
3	0xbdcc6b3c	-0.09981391
4	0x3d0d2455	0.034458477
5	0xbd25ee23	-0.040510308
6	0xbb5e0808	-0.0033879299
7	0xbbaeb38a	-0.0053314613
8	0xbe1b2f39	-0.15154733
9	0xbdf04eb7	-0.11733764
10	0xbe168129	-0.14697708
11	0x3d728daf	0.05921715
12	0x3d23c0ad	0.03997867
13	0xbcf2ca8b	-0.029637596
14	0xbd464485	-0.04840519
15	0x3d51ca6d	0.05121844
16	0x3d7284c5	0.05920865
17	0xbdb9db37	-0.09075015
18	0x3d509e71	0.05093235
19	0x3c808f44	0.015693314
20	0x3dc8150b	0.09769639
21	0xbc6dde46	-0.014518326
22	0x3d64f627	0.05589881
23	0x3cc75d2b	0.024336418
24	0x3c8e3c5a	0.017362762
25	0xbe122ab0	-0.14274096
26	0xbb7b4fb5	-0.003834707
27	0x39b08b07	0.0003367292
28	0x3cb80afe	0.022466179
29	0xbe11402a	-0.14184633
30	0x3c614e92	0.013751643
31	0xbd8e043c	-0.069344014
32	0x3c18a6b3	0.009317088
33	0xbc6022fb	-0.013680215
34	0xbe0ccab9	-0.13749208
35	0xbd85781c	-0.0651705
36	0x3da35b2b	0.07976373
37	0xbd1b82ea	-0.037966646
38	0xbd763099	-0.06010494
39	0xbdd136a4	-0.102155
40	0xbd71b46e	-0.05900996
41	0xbdef95de	-0.11698507
42	0xbb9d50f5	-0.0048009106
43	0xbcc16093	-0.02360562
44	0xbd825e94	-0.063656956
45	0xbe2c597f	-0.16831015
46	0xbdeb6f18	-0.11495799
47	0xbd2ffc72	-0.04296536
48	0xbd5ab394	-0.053393915
49	0x3bb6f515	0.0055834153
50	0xbd19cc2d	-0.037548233
51	0x3db0fd2f	0.08642041
52	0xbd0b94ea	-0.034077562
53	0xbcf8c010	-0.03036502
54	0xbde84b07	-0.11342435
55	0x3cc6efee	0.02428433
56	0xbd9e6d4b	-0.0773569
57	0xbe0b9f7b	-0.13635056
58	0xbdac61dd	-0.084171034
59	0xbd9ad049	-0.075592585
60	0x3d49cc22	0.04926694
61	0x3cf0ee7b	0.029410591
62	0xbadea220	-0.0016985573
63	0xbd546063	-0.051849734
64	0x3b533a4a	0.0032230788
65	0x3c6461c8	0.0139393285
66	0xbdb9a902	-0.09065439
67	0x3d9c0308	0.07617766
68	0xbe2e2320	-0.17005587
69	0xbe087df6	-0.133293
70	0xbc9194e6	-0.017771196
71	0xbd577e00	-0.052610397
72	0xbcc0a9ae	-0.02351841
73	0xbd124d39	-0.035718177
74	0xbd69aca3	-0.057049405
75	0xbdbc1469	-0.091835804
76	0xbdca043f	-0.09864091
77	0x3cedb37c	0.029016249
78	0xbd8b2d2f	-0.067957275
79	0x3d42476f	0.047431406
80	0xbc9824b5	-0.01857219
81	0xbde36771	-0.11103714
82	0x3d8c318d	0.068453886
83	0xbda39c43	-0.07988789
84	0xbe156be6	-0.14591941
85	0xbc3a8317	-0.011383793
86	0xbdd219f5	-0.10258857
87	0x3db513bc	0.08841655
88	0xbce15e6b	-0.027510842
89	0xbd57cb30	-0.05268401
90	0xbcb667e5	-0.022266338
91	0xbe12afbc	-0.1432485
92	0x3cf693e1	0.030099811
93	0xbce4cad8	-0.027928755
94	0xbdf6850f	-0.12037098
95	0xbd06c77f	-0.032905098
96	0x3d8965ed	0.06708894
97	0xbd21e7c8	-0.039527684
98	0xbdb68150	-0.08911383
99	0xbdd0bb5b	-0.10191985
100	0xbe51debe	-0.20495126
101	0xbd9245b9	-0.07142205
102	0x3dfe0e2e	0.12405048
103	0x3cda4345	0.026643405
104	0x3e5a3051	0.21307494
105	0x3e162f08	0.14666378
106	0x3d9a75f3	0.07542028
107	0x3d54e998	0.051980585
108	0x3d4d9358	0.050189346
109	0x3e2a20df	0.16614102
110	0x3ea160a9	0.31519058
111	0x3e8d172d	0.27556744
112	0x3e2400a8	0.16015875
113	0x3e7009f8	0.23441303
114	0x3e7b76cd	0.24557038
115	0x3e7fbd92	0.24974659
116	0x3da6d45f	0.08145975
117	0x3e4018e2	0.18759492
118	0x3c157817	0.00912287
119	0x3e26f329	0.16303696
120	0x3c2002d9	0.009766304
121	0x3c07fd4f	0.00830014
122	0x3ce1e5bf	0.027575372
123	0xbd81d0a8	-0.06338626
124	0xbd06bebf	-0.032896753
125	0xbddf1663	-0.10892942
126	0x3eb8029b	0.35939488
127	0x3e8e6c0a	0.27816802
128	0x3ea9af6c	0.3314165
129	0x3da13006	0.07870488
130	0x3bac4ad1	0.0052579422
131	0x3e31a417	0.17347752
132	0xbc81f9a8	-0.015866116
133	0x3ed7ae45	0.42125145
134	0x3e6b73ad	0.22993346
135	0x3d98847a	0.07447143
136	0x3e29645e	0.16542193
137	0xbd93813d	-0.072023846
138	0x3e34d1e2	0.17658189
139	0xba75d31e	-0.0009377467
140	0x3e5180cb	0.20459287
141	0x3e79ffe5	0.24414022
142	0xbd37016a	-0.044679083
143	0x3e1df44e	0.15425226
144	0x3e18c391	0.14918353
145	0x3c2ab16f	0.01041828
146	0x3e9611e6	0.2931053
147	0x3eae4e19	0.3404396
148	0xbcecec84	-0.028921373
149	0x3e953b7b	0.29146942
150	0xbe249ffb	-0.16076653
151	0x3daac8ad	0.08339057
152	0x3eb86695	0.36015764
153	0x3d8ae271	0.067814715
154	0x3cd434f3	0.025904154
155	0x3dacb44e	0.08432828
156	0x3e6ddb14	0.23228103
157	0x3ed5f9ca	0.41792136
158	0xbd1776d5	-0.03697856
159	0xbc16df49	-0.009208509
160	0x3e570ca0	0.2100091
161	0x3e088e5e	0.13335559
162	0xbd77b704	-0.06047727
163	0xbe5cc2a7	-0.21558629
164	0x3b4bfa89	0.0031124672
165	0x3da39252	0.07986893
166	0x3cbbdde6	0.022932958
167	0x3e886f30	0.2664733
168	0x3cfae3e8	0.030626252
169	0x3d0c5a2d	0.034265686
170	0xbdbfb5f5	-0.093608774
171	0x3e301d6c	0.17198724
172	0x3ee19588	0.44059396
173	0x3ec86d24	0.39145768
174	0xbe4966f2	-0.19668177
175	0xbd2e3248	-0.04252842
176	0xbd606bb7	-0.054790225
177	0xbb8e2036	-0.004337336
178	0x3e0c0818	0.13674963
179	0x3bf892ad	0.0075858445
180	0x3cb2f9d0	0.021847636
181	0xbc0aa6c3	-0.008462611
182	0xbdff9a80	-0.124806404
183	0xbe0ca782	-0.13735774
184	0xbdca63fc	-0.09882352
185	0xbcafc531	-0.021456333
186	0x3d26324e	0.040575318
187	0x3e5fb188	0.21845067
188	0x3e9f2308	0.31081414
189	0xbd2e6935	-0.042580802
190	0xbe508b98	-0.20365751
191	0x3da0e005	0.07855228
192	0x3e990d03	0.2989274
193	0xbd9101ef	-0.07080447
194	0xbd14e0c8	-0.03634718
195	0x3dae18b7	0.08500808
196	0x3e52712e	0.20550987
197	0xbc809d53	-0.015700018
198	0x3e95073d	0.29107085
199	0x3e476b37	0.19474493
200	0x3d1f5f7d	0.038909424
201	0x3df78419	0.120857425
202	0xbd4d3c69	-0.05010644
203	0xbd7771b8	-0.060411185
204	0x3dab1332	0.083532706
205	0xbd50806b	-0.05090372
206	0x3dcb803c	0.09936568
207	0xbd132947	-0.035928037
208	0x3d999551	0.07499183
209	0xbd9461ec	-0.072452396
210	0x3d023d1a	0.031796552
211	0x3db75be1	0.089530714
212	0xbd401fcc	-0.046905324
213	0xbc41cade	-0.011828152
214	0xbc52b78e	-0.012861146
215	0x39f502f6	0.00046732248
216	0x3d96a235	0.07355157
217	0x3d6acead	0.057326008
218	0xbc897ded	-0.016783679
219	0x3d30e53d	0.04318737
220	0x3d833999	0.0640747
221	0xbcf49705	-0.029857168
222	0x3c48e55a	0.012261713
223	0x3c1004b5	0.008790185
224	0xbd3552a3	-0.04426826
225	0x3c7e5246	0.015522545
226	0x3d1e1561	0.038594607
227	0xbd8e5b03	-0.06950953
228	0x3d285db9	0.041105006
229	0xbdf609a8	-0.120135605
230	0xbcf5de6f	-0.030013291
231	0x3d898e96	0.06716649
232	0x3d7b1923	0.06130327
233	0x3d7bf2dd	0.06151091
234	0xbd6c5646	-0.057699464
235	0xbcad4c09	-0.02115442
236	0x3da7001e	0.08154319
237	0xbc6dab5e	-0.014506189
238	0x3c804ec1	0.015662553
239	0x3da1cf31	0.07900847
240	0x3c855efb	0.016280642
241	0xbda89112	-0.08230795
242	0xbcd5330f	-0.026025323
243	0x3b4e3be5	0.0031468805
244	0xbb42671d	-0.002966351
245	0xbd728085	-0.059204597
246	0xbdc596ce	-0.09647904
247	0x3cee5cde	0.029097017
248	0xbd73efbc	-0.0595548
249	0x3d25e419	0.040500734
250	0x3db3f866	0.087876126
251	0x3d7d669d	0.061865438
252	0x3db18389	0.086676665
253	0x3d58f0a4	0.052963868
254	0xbdbcb38a	-0.09213932
255	0xbda23392	-0.079199925

bias_hh_l0 f4 [300]
0	0xbdc3a613	-0.095531605
1	0xbd952051	-0.072815545
2	0x3d488365	0.048953433
3	0xbdbe435a	-0.0929019
4	0x3cf4e7c9	0.02989568
5	0xbdfe3f8f	-0.124144666
6	0xbd263eb0	-0.040587127
7	0xbd02c97d	-0.031930435
8	0xbe5f8345	-0.21827419
9	0xbd1988ba	-0.03748391
10	0xbd11194f	-0.035424527
11	0xbbaf9e0d	-0.0053594173
12	0x3d11d487	0.035603072
13	0xbdb72857	-0.08943241
14	0xbd9f345c	-0.07773659
15	0xbd85c64c	-0.06531963
16	0x3cb03c20	0.021513045
17	0x3d57e056	0.052704178
18	0xbd94c3b7	-0.07263892
19	0xbe017668	-0.12642825
20	0xbd3a1c68	-0.045437247
21	0xbe0348ad	-0.12820692
22	0xbd8a0d76	-0.06740849
23	0x3d796334	0.060885623
24	0xbdf999c9	-0.12187535
25	0xbda3904d	-0.079865076
26	0xbbcfbe70	-0.0063398406
27	0xbe091e60	-0.13390493
28	0x3dbc02e1	0.091802366
29	0xbdaaf236	-0.08346979
30	0xbdcf7e20	-0.10131478
31	0xbe1af533	-0.15132599
32	0xbdbafecf	-0.09130632
33	0x3db5f33a	0.088842824
34	0xbce21cb2	-0.027601574
35	0x3c73747f	0.014859318
36	0xbd343639	-0.043997023
37	0x3d0b4532	0.034001537
38	0x3da06da7	0.078334145
39	0xbcf38062	-0.029724304
40	0xbd97ed7d	-0.07418344
41	0xbdb862d2	-0.090032235
42	0xb9bd839f	-0.00036146955
43	0xbdae7444	-0.0851827
44	0xbc694534	-0.014237691
45	0xbd81fd01	-0.06347085
46	0xbd772051	-0.060333554
47	0xbd87a078	-0.06622404
48	0x3cbc893e	0.02301466
49	0x3cc23710	0.023707896
50	0x3d6f9d35	0.058499534
51	0xbd5a3ca4	-0.053280488
52	0xbc943b2a	-0.018094618
53	0x3b87a27c	0.0041392427
54	0xbdda11a5	-0.10647897
55	0x3d771214	0.060319975
56	0xbd209bcf	-0.03921109
57	0xbb4dff82	-0.0031432812
58	0x3cb1063e	0.021609422
59	0x3d3e6f37	0.04649278
60	0x3cc3b069	0.02388783
61	0xbd0ac0a0	-0.033875108
62	0xbe20772b	-0.15670459
63	0x3cd339bb	0.025784364
64	0xbd94dc34	-0.07268563
65	0xbce5a7c8	-0.028034106
66	0xbdde0e96	-0.10842626
67	0x3af27d6c	0.0018500513
68	0xbddab5bc	-0.10679194
69	0xbd010950	-0.03150302
70	0xbcf0ce55	-0.029395262
71	0xbb820c16	-0.003968726
72	0x3d83c33f	0.064337246
73	0x3c998fd6	0.018745344
74	0xbca78e90	-0.020453721
75	0xbe36d8fd	-0.17856212
76	0xbd3a070a	-0.04541687
77	0xbde3837a	-0.111090615
78	0xbdffe1e9	-0.12494261
79	0xbdaa04e8	-0.08301717
80	0x3d1b0dfe	0.03785514
81	0xbe02768b	-0.12740533
82	0xbd6238eb	-0.055230062
83	0xbafa4cd7	-0.0019096386
84	0xbe1000d4	-0.14062816
85	0xbddb07dc	-0.106948584
86	0xbdba8a95	-0.09108464
87	0x3ddf48a0	0.10902524
88	0xbde0ae03	-0.1097069
89	0xbdfaf57a	-0.12253852
90	0xbd9f5a37	-0.07780879
91	0xbd99a7d9	-0.075027175
92	0xbc9f5ddb	-0.019453933
93	0x3c6cfc55	0.0144644575
94	0xbe1c8363	-0.15284495
95	0xbdbb0d16	-0.09133355
96	0xbc4ea94e	-0.012613608
97	0xbd9b934e	-0.075964555
98	0xbd78a8db	-0.060707908
99	0xbe110f42	-0.14165977
100	0xbe2395f2	-0.15975168
101	0x3cda891e	0.02667671
102	0x3ddbd8fd	0.107347466
103	0x3c810d76	0.015753489
104	0x3e114921	0.14188053
105	0x3d97ba20	0.074085474
106	0x3cb779fe	0.022397038
107	0xbdb6d34f	-0.08927023
108	0x3c0c51be	0.008564411
109	0x3c604715	0.013688822
110	0x3e0faad1	0.14030005
111	0x3e7df293	0.24799566
112	0x3e357db4	0.17723733
113	0x3e9eecd0	0.3104005
114	0x3e1c96c3	0.15291886
115	0x3e5d7641	0.21627142
116	0x3e057b6d	0.13035364
117	0x3e388e7f	0.18023108
118	0x3da6952f	0.08133923
119	0x3e68a685	0.22719772
120	0xbde6b0cc	-0.1126419
121	0x3defa8d5	0.11702124
122	0x3d56d733	0.052451324
123	0x3ce6e57f	0.028185604
124	0x3d834299	0.06409187
125	0x3cef13b0	0.029184192
126	0x3ef160e4	0.47144234
127	0x3ded8c84	0.11599067
128	0x3e859cd4	0.26096213
129	0xbdd94322	-0.10608508
130	0x3c2e877e	0.010652421
131	0x3e2a1108	0.1660806
132	0x3d0d539e	0.03450357
133	0x3ebf2254	0.37330878
134	0x3e161b4d	0.14658852
135	0x3d986dce	0.074428186
136	0x3dc175d3	0.09446301
137	0x3cd7e8e8	0.026356176
138	0x3e4cb678	0.19991481
139	0xbd236b3a	-0.03989718
140	0x3db56c17	0.08858507
141	0x3ed0768b	0.4071544
142	0x3e0221c7	0.12708198
143	0x3e5bd433	0.21467666
144	0x3d71f966	0.059075736
145	0x3d05cc1c	0.032665357
146	0x3e9610fe	0.2930984
147	0x3e885f6b	0.26635298
148	0xba9c0f03	-0.0011906329
149	0x3e81f11e	0.2537927
150	0xbce45750	-0.027873665
151	0x3dbf3f70	0.093382716
152	0x3eea4764	0.45757592
153	0xbbe88fb7	-0.0070972103
154	0x3d41e78d	0.047339965
155	0x3e221920	0.15829897
156	0x3e72031e	0.23634002
157	0x3ea5ac40	0.3235798
158	0x3d58d3d3	0.052936386
159	0xbdb940d9	-0.09045572
160	0x3de7d32b	0.11319574
161	0x3dbe109a	0.0928051
162	0xbd1b4359	-0.037906025
163	0xbe2abb98	-0.16673124
164	0xbd33ef7d	-0.043929566
165	0x3e5efcc5	0.21776111
166	0x3cc96b5b	0.024587324
167	0x3e9a66cc	0.30156553
168	0xbd9dc1db	-0.077029906
169	0x3db3112b	0.08743509
170	0xbdc7a33e	-0.09747933
171	0x3e3e55c8	0.1858741
172	0x3ed646ae	0.418508
173	0x3e970f46	0.2950384
174	0xbdb44e89	-0.08804042
175	0x3c4a6df8	0.01235532
176	0xbe292c1e	-0.16520736
177	0xbd34350b	-0.0439959
178	0x3e52bcc2	0.20579818
179	0xbd41a8b2	-0.04728002
180	0xbd56ad84	-0.05241157
181	0xbde78a67	-0.11305695
182	0xbdca086c	-0.098648876
183	0xbe2baef7	-0.16765963
184	0xbe4587f2	-0.1929014
185	0xbccff979	-0.025387513
186	0x3c0edd61	0.008719773
187	0x3e61a0a6	0.22033939
188	0x3e969d64	0.29416955
189	0xbd72155b	-0.059102397
190	0xbe042bc6	-0.12907323
191	0x3d634095	0.055481512
192	0x3e408fd1	0.18804862
193	0xbce2dffc	-0.027694695
194	0x3d787143	0.06065489
195	0x3dedea3f	0.116169445
196	0x3e47797a	0.19479933
197	0x3e16734a	0.14692417
198	0x3e53e41c	0.20692486
199	0x3e45dcbd	0.19322486
200	0xbc5637f5	-0.013074865
201	0xbd898020	-0.06713891
202	0xbda6d4ce	-0.08146058
203	0xbd981870	-0.07426536
204	0xbdb0c573	-0.086314104
205	0x3cc451ad	0.023964727
206	0x3c70fe8d	0.014709127
207	0x3cd8a564	0.026446052
208	0x3d46b2f6	0.048510514
209	0x3dbfd667	0.09367066
210	0xbd91b57d	-0.07114694
211	0x3db4a98a	0.088213995
212	0x3d1ff9e5	0.039056677
213	0xbc02715f	-0.0079616
214	0x3cc1fdce	0.023680594
215	0x3d928abd	0.071553685
216	0xbbc64b73	-0.0060514747
217	0xbdc14144	-0.094362766
218	0xbe156f32	-0.14593199
219	0x3c81b349	0.01583256
220	0xbdc3078a	-0.09522922
221	0xbd8d4f27	-0.06899863
222	0xbd6221a1	-0.055207852
223	0xbdce8112	-0.10083212
224	0xbc15ee6e	-0.009151084
225	0x3bd15910	0.006388791
226	0xbd285670	-0.04109806
227	0x3db1c70a	0.08680542
228	0x3d94bb3f	0.07262277
229	0x3bf01ce6	0.0073276637
230	0xbc8c4c83	-0.017126327
231	0xbd6ca7c0	-0.057777166
232	0x3b5c9d18	0.003366297
233	0xbc071f43	-0.0082471995
234	0xbac95b9c	-0.0015362385
235	0x3dab4af1	0.08363903
236	0x3cfea762	0.031085674
237	0xbd70f34d	-0.05882578
238	0xbcedb99e	-0.029019173
239	0xbd2dc3f2	-0.042423196
240	0xbdffd36f	-0.124915
241	0xbc3f4aa3	-0.01167551
242	0x3cd5b152	0.02608553
243	0x3d9e64fe	0.077341065
244	0x3d14ab37	0.036296096
245	0x3d9dcf2d	0.07705531
246	0xbb85bde1	-0.004081473
247	0x3d142171	0.036164705
248	0x3d8ed590	0.069743276
249	0x3cbd06d4	0.023074545
250	0x3d2448f0	0.04010862
251	0x3b9492f6	0.0045341207
252	0xbdb3ca30	-0.087787986
253	0xbd8041d7	-0.06262558
254	0xbc2fd549	-0.0107320035
255	0x3cac20f5	0.021011809

weight_ih_l1 f4 [300, 100]
0	0xbd551de9	-0.052030478
1	0x3d52912e	0.051407985
2	0xbda91217	-0.082554035
3	0x3db20e14	0.086940914
4	0xbe099db6	-0.13439068
5	0xbd98293b	-0.07429739
6	0xbce95656	-0.028483551
7	0xbbe571cb	-0.0070020906
8	0xbd8d812c	-0.06909403
9	0x3da0a641	0.078442104
10	0xbd6bf5f5	-0.05760761
11	0xbcc51494	-0.024057664
12	0x3adc03f9	0.0016785852
13	0xbdd7eeff	-0.10543632
14	0x3d52f1ba	0.05150006
15	0x3c5eee22	0.01360658
16	0x3da61bac	0.08110747
17	0xbd441de6	-0.047880076
18	0x3d02ae52	0.031904526
19	0xbd049a1a	-0.032373525
20	0x3d0a9d4a	0.03384141
21	0x3e4c0a03	0.19925694
22	0x3cfd288a	0.03090312
23	0x3d56cf5f	0.05244386
24	0x3cc8afe9	0.024497943
25	0xbe2d576f	-0.16927885
26	0x3d2e6a38	0.042581767
27	0x3dad84f8	0.084726274
28	0x3de28200	0.11059952
29	0xbd51f200	-0.05125618
30	0x3daa51d2	0.08316387
31	0xbe0dcf74	-0.13848668
32	0x3d1f3310	0.038867056
33	0x3d5efc36	0.054439746
34	0x3e35efb9	0.17767228
35	0x3dffb84a	0.12486322
36	0x3d02086d	0.031746317
37	0x3d8b9d3c	0.068170995
38	0x3e090d42	0.13383964
39	0xbdbef61b	-0.09324285
40	0x3e1061e8	0.14099848
41	0xba6a2ebe	-0.0008933357
42	0xbd59e454	-0.053196266
43	0xbe425623	-0.18978171
44	0xbca86533	-0.020556068
45	0x3e139ba2	0.14414838
46	0xbdbeaf18	-0.0931074
47	0x3c89257d	0.016741509
48	0xbc808fcf	-0.015693573
49	0xbd12a7dc	-0.035804614
50	0x3e2c8317	0.16846882
51	0x3d87b31b	0.066259585
52	0xbde70d1a	-0.11281796
53	0x3dc4c25f	0.09607386
54	0x3d3f5c03	0.04671861
55	0x3d896612	0.067089215
56	0x3d2993a3	0.041400563
57	0x3cccb43a	0.024988282
58	0x3cfd9ab1	0.030957552
59	0x3c063835	0.008192112
60	0xbdddbef2	-0.108274356
61	0x3c08b466	0.008343792
62	0x3dfadac7	0.1224876
63	0xbc0476ff	-0.0080850115
64	0x3d0f172c	0.034934208
65	0xba4e13fc	-0.0007861254
66	0x3d47231d	0.04861747
67	0x3de2b295	0.11069218
68	0xbe5eeda3	-0.21770339
69	0x3de7d2d4	0.11319509
70	0x3dc5ffce	0.096679315
71	0xbdcfaf4f	-0.10140859
72	0xbcdd8583	-0.027041202
73	0xbd78ae86	-0.060713314
74	0x3c9d9dd5	0.0192403
75	0x3d3b95ff	0.045797344
76	0xbe7846ce	-0.2424576
77	0xbe1f97bb	-0.15585224
78	0xbb4ffb09	-0.0031735322
79	0xbc990760	-0.018680274
80	0x3e025056	0.12725958
81	0xbd15f740	-0.03661275
82	0x3d866499	0.06562156
83	0xbc63409b	-0.013870384
84	0x3d68d0e3	0.056839835
85	0x3d54eebf	0.0519855
86	0x3d25ace5	0.04044809
87	0xbcf2aa98	-0.029622361
88	0xbd59a63c	-0.05313705
89	0xbdbf7bc1	-0.09349776
90	0xbc9a2ad2	-0.018819246
91	0xbb1a8c53	-0.0023582175
92	0xbc110252	-0.008850651
93	0x3d0acfb6	0.033889495
94	0x3dbbd635	0.09171716
95	0x3d0c724f	0.0342887
96	0x3dbcb1f3	0.092136286
97	0xbdcd4f8a	-0.100249365
98	0x3dbff7da	0.09373446
99	0xbd42aa02	-0.047525413
100	0x3e14e897	0.14541851
101	0xb9468aa6	-0.00018934402
102	0x3c925735	0.01786385
103	0xba75d00b	-0.0009377009
104	0x3d8d0961	0.068865545
105	0x3dd347ca	0.10316427
106	0xbb84eb8e	-0.0040564006
107	0xbdba0ae3	-0.09084108
108	0xbba7d337	-0.0051216143
109	0x3d6a2775	0.057166535
110	0xbd6dce19	-0.05805788
111	0x3d6f39d9	0.058404777
112	0x3d8234f8	0.06357759
113	0xbd1a02e0	-0.037600398
114	0x3dbabbbf	0.09117841
115	0x3d8b0e59	0.06789846
116	0xbe3d84b5	-0.18507655
117	0x3c941d71	0.018080445
118	0xbb839bda	-0.0040163817
119	0xbdb30942	-0.08742
120	0xbe20f810	-0.15719628
121	0xbc1082e7	-0.008820272
122	0xbe4389e7	-0.19095574
123	0xbdf9ab14	-0.12190834
124	0xbd5a8fa0	-0.053359628
125	0x3c5642ae	0.013077421
126	0xbe1b4c19	-0.15165748
127	0xbe2903a4	-0.16505295
128	0xbda4dc55	-0.080498375
129	0x3cbf667c	0.023364298
130	0x3d22b1e9	0.03972045
131	0xbd263f22	-0.040587552
132	0xbc742091	-0.014900343
133	0xbdc53f04	-0.0963116
134	0xbd0bef6a	-0.03416387
135	0xbdac38e5	-0.08409289
136	0xbd4119ff	-0.047143932
137	0xbd2747f3	-0.0408401
138	0xbd9b1bc1	-0.07573653
139	0xbd65d543	-0.056111585
140	0xbd33fd36	-0.043942653
141	0xbe055075	-0.13018973
142	0xbe1fa094	-0.155886
143	0xbd152047	-0.036407735
144	0x3dd30854	0.10304323
145	0xbd246d93	-0.04014356
146	0x3de2e386	0.11078553
147	0xbb941b39	-0.0045198468
148	0x3ccfb838	0.025356397
149	0x3da92237	0.08258479
150	0x3d8b4a06	0.06801228
151	0xbd933767	-0.071883015
152	0xbcc580dd	-0.024109298
153	0xbd9e58a3	-0.0773175
154	0xbe84e679	-0.25957087
155	0x3e2ef919	0.1708721
156	0xbd22c815	-0.039741594
157	0x3bcb097c	0.006196199
158	0x3dfe61e4	0.12421015
159	0xbe1bab86	-0.1520215
160	0x3d1620ab	0.03665225
161	0xbd4df05a	-0.050278045
162	0x3d893702	0.06699945
163	0xbe5261b8	-0.20545089
164	0x3c722a72	0.014780628
165	0x3e198f58	0.14996088
166	0x3e1890af	0.14898942
167	0xbd19edb7	-0.03758022
168	0x3e1236d4	0.14278728
169	0x3df986c3	0.12183907
170	0xbbed1137	-0.007234718
171	0xbc07ce95	-0.008288999
172	0xbc99bc30	-0.018766493
173	0x3d1c106e	0.038101606
174	0x3dae9115	0.08523766
175	0xbe19cf4e	-0.15020487
176	0x3e199082	0.14996532
177	0xbbb91d85	-0.005649271
178	0x3e14a5a2	0.14516309
179	0xbe4432f5	-0.19160064
180	0x3d7e6eb1	0.062117282
181	0x3c9026e3	0.017596668
182	0x3d9e326d	0.07724462
183	0x3d217148	0.039414674
184	0xbe0ab835	-0.13546832
185	0x3bec70fa	0.0072156163
186	0x3d5ae6ed	0.053442884
187	0xbda5000b	-0.08056649
188	0xbd78a12b	-0.060700577
189	0xbd74dbc2	-0.05977989
190	0xbd4556e8	-0.048178583
191	0x3d21a18e	0.03946071
192	0xbd51ccbc	-0.05122064
193	0x3c020ea9	0.007938066
194	0xbd9c06d4	-0.0761849
195	0xbdfd10ad	-0.12356696
196	0x3d107273	0.035265397
197	0x3d75f67b	0.060049515
198	0xbd2545ef	-0.040349897
199	0xbd82c1af	-0.063845985
200	0xbcc0e6bf	-0.023547528
201	0x3d99dbdb	0.07512637
202	0x3b664a39	0.0035139455
203	0xbd8953dd	-0.06705449
204	0xbd8d77ee	-0.069076404
205	0xbcd9ee64	-0.026602931
206	0x3ca836f5	0.020534018
207	0xbd6dc376	-0.058047734
208	0xbd176417	-0.036960687
209	0xbc3de063	-0.0115891425
210	0xbe05f04c	-0.13079947
211	0x3e173400	0.1476593
212	0xbd41ad39	-0.04728434
213	0xbdc974e5	-0.09836749
214	0xbd549bea	-0.051906504
215	0x3cca5ee9	0.02470346
216	0xbd9bf8c1	-0.076158054
217	0xbd8eb4f5	-0.069681086
218	0xbc9b193f	-0.018932937
219	0x3dd3822c	0.10327563
220	0xbd430976	-0.047616445
221	0xbd38c228	-0.045107037
222	0xbda4d759	-0.08048887
223	0xbdda3775	-0.10655109
224	0xbdca94f0	-0.09891689
225	0x3d30cc07	0.043163326
226	0xbccce3c5	-0.025010953
227	0xbe0e44b1	-0.13893391
228	0x3d7b17f2	0.061302133
229	0xbd687946	-0.05675628
230	0x3d3cfb02	0.046137817
231	0x3c9687ae	0.018375244
232	0x3db05514	0.08609977
233	0xbcc24d91	-0.023718627
234	0x3d95040c	0.072761625
235	0xbd1369c5	-0.03598954
236	0x3cfd4d6f	0.030920712
237	0xbe130a7b	-0.14359467
238	0xbe236325	-0.1595579
239	0x3dba31fd	0.09091566
240	0xbe22d430	-0.15901256
241	0xbdecd2b4	-0.11563626
242	0xbdfa4387	-0.12219911
243	0x3ddd8d19	0.10817928
244	0x3d2bd065	0.041946787
245	0xbdca845e	-0.09888528
246	0xbcd97ab6	-0.026547771
247	0x3da6f117	0.08151453
248	0xbdea94fd	-0.114541985
249	0x3d357b7e	0.044307224
250	0x3c0621a5	0.008186732
251	0x3d76144c	0.06007795
252	0x3dbd99e4	0.09257868
253	0xbe0ad375	-0.13557227
254	0xbdaa103a	-0.08303876
255	0x3dbb06fb	0.09132191

weight_hh_l1 f4 [300, 100]
0	0x3d6b4e81	0.057447914
1	0xbdafc85c	-0.085831374
2	0xbd2e411f	-0.042542573
3	0x3c83798b	0.016049167
4	0x3dc69b4c	0.09697589
5	0xbdce1b56	-0.10063808
6	0xbd32fea8	-0.04369989
7	0xbda861e7	-0.082217984
8	0xbd4defb7	-0.050277438
9	0xbb5d8c50	-0.0033805557
10	0x3cbdfc0a	0.02319147
11	0xbd8c7792	-0.06858744
12	0x3db90d91	0.09035791
13	0x3d94f42d	0.07273135
14	0x3e189f31	0.14904477
15	0x3d1aa549	0.037755284
16	0x3d816cb9	0.06319565
17	0xbd82338f	-0.0635749
18	0xbddb3743	-0.107039
19	0x3e06621c	0.13123363
20	0xbd87a38d	-0.06622992
21	0xbde5fd3e	-0.11229943
22	0xbd216237	-0.039400306
23	0x3e0d83d5	0.13819821
24	0xbd2dea91	-0.042460028
25	0x3de0b0fc	0.10971257
26	0xbc8875a3	-0.016657656
27	0xbd863235	-0.06552545
28	0x3d765bb3	0.060146045
29	0x3d195310	0.03743273
30	0xbc960e79	-0.018317448
31	0x3e4bc378	0.19898784
32	0xbe408ab3	-0.1880291
33	0xbd2fff9c	-0.042968377
34	0x3e0377f4	0.12838727
35	0x3dd89632	0.105755225
36	0x3c8b2084	0.016983278
37	0xbd94ef26	-0.072721764
38	0x3dd6ff44	0.10497907
39	0x3e113070	0.14178634
40	0xbc1681c7	-0.009186215
41	0x3d4a3c2f	0.0493738
42	0x3bf3738a	0.007429545
43	0xbd7667ff	-0.060157772
44	0xbd872bc9	-0.06600148
45	0xbe186b89	-0.14884771
46	0xbc35e7f1	-0.011102662
47	0xbd664353	-0.05621655
48	0x3ce6c0cb	0.028168103
49	0x3dacd1a0	0.0843842
50	0x3d8dd633	0.06925621
51	0xbc227798	-0.009916209
52	0xbd79ebf3	-0.061016034
53	0xbcda4c8a	-0.026647825
54	0x3af9eb2a	0.0019067277
55	0x3da74219	0.08166904
56	0xbdafb5ce	-0.08579598
57	0x3d1fd6b5	0.03902312
58	0x3d8ce81e	0.0688021
59	0xbd847d6a	-0.06469233
60	0x3de62def	0.1123923
61	0xbd53522e	-0.051592045
62	0xbd468114	-0.048462942
63	0x3cc4df41	0.024032237
64	0xbd89aed2	-0.067227975
65	0xbd52a223	-0.051424157
66	0xbd08e113	-0.033417773
67	0xbbac7bab	-0.005263766
68	0x3dd1174b	0.10209521
69	0x3decddd6	0.11565749
70	0x3dbf224c	0.093327135
71	0xbd8ae441	-0.06781817
72	0x3cc1c95a	0.023655582
73	0x3e6210fd	0.22076793
74	0xbceab414	-0.028650321
75	0xbc866527	-0.016405655
76	0xbca8c8c8	-0.020603552
77	0x3bf3832a	0.0074314075
78	0xbd12365d	-0.035696376
79	0x3ddbd4d1	0.10733951
80	0x3dcf11fb	0.101108514
81	0x3ca612e6	0.020272683
82	0xbcbbecd8	-0.022940084
83	0x3c966fe3	0.018363899
84	0xbb395602	-0.0028280024
85	0x3d2041e2	0.03912533
86	0xbcc06353	-0.023484861
87	0xbd9ca6ef	-0.076490276
88	0xbdc9c8d2	-0.098527566
89	0x3daafbc8	0.08348805
90	0x3d06fdd8	0.032956928
91	0x3dcbb44e	0.099465
92	0x3dc7a939	0.097490735
93	0x3d662497	0.05618724
94	0x3d9aba4a	0.07555063
95	0x3e0a450b	0.135029
96	0xbdb97d89	-0.09057147
97	0xbd81e0dc	-0.06341717
98	0x3bb6946c	0.0055718925
99	0x3e528f01	0.20562364
100	0x3cf316f9	0.02967404
101	0x3caeb5c5	0.021326909
102	0xbe45e3de	-0.19325206
103	0xbdbe1377	-0.092810564
104	0xbdb4326f	-0.08798682
105	0xbda7ae6c	-0.08187565
106	0x3c9e3406	0.019311916
107	0x3e04f3d6	0.12983641
108	0x3bfe7796	0.0077657206
109	0xbe39ae25	-0.18132837
110	0x3e11de6a	0.14245
111	0xbdc8f7e2	-0.09812905
112	0x3c4ddaa1	0.012564332
113	0xbe0aaae1	-0.13541748
114	0x3cf2b5c6	0.029627692
115	0x3d0d28b8	0.03446266
116	0xbe33139a	-0.17487946
117	0xba926403	-0.0011168722
118	0xbe0933ca	-0.13398662
119	0x3d81fa0f	0.06346523
120	0x3c406d75	0.011744847
121	0x3d3928c6	0.0452049
122	0xbe03ab2e	-0.12858269
123	0x3db5c03c	0.088745564
124	0xbddabba1	-0.106803186
125	0x3db5e267	0.088810734
126	0x3d99f9c7	0.07518344
127	0x3e107ae8	0.14109385
128	0xbc5d9d18	-0.013526224
129	0x3adf15c8	0.0017020041
130	0x3da45173	0.08023348
131	0x3d778978	0.060433835
132	0x3d702a95	0.05863436
133	0xbdccaa59	-0.09993429
134	0xbd9fb156	-0.07797496
135	0x3db840dd	0.08996747
136	0x3d580882	0.05274249
137	0xbd22df42	-0.039763696
138	0xbdc841ce	-0.09778176
139	0x3d3e5733	0.04646988
140	0x3cc8e017	0.024520917
141	0xbcc3c7ca	-0.023898978
142	0x3ddec10c	0.108766645
143	0x3d8f5e05	0.07000355
144	0x3dfadde6	0.12249355
145	0x3d8200cf	0.063478105
146	0xbe10be5d	-0.14135118
147	0xbcb5aef6	-0.022178154
148	0x3cf8fb7f	0.03039336
149	0xbd0b78ca	-0.03405074
150	0x3e320aed	0.1738698
151	0x3c15799e	0.009123234
152	0x3e08435c	0.13306946
153	0xbd480f92	-0.048842974
154	0x3d3b5d38	0.045743197
155	0xbd8224c7	-0.06354671
156	0x3bf3cf06	0.0074404506
157	0xbda7f718	-0.08201426
158	0xbdb4be5a	-0.08825369
159	0x3dcd14ff	0.1001377
160	0x3ca298c8	0.019848242
161	0x3d826a7a	0.06367965
162	0x3c95f69c	0.01830607
163	0x3d5d91b0	0.054094017
164	0xbdba51df	-0.09097647
165	0xbd89e659	-0.067333885
166	0x3d1479c7	0.03624895
167	0x3c894c1c	0.016759925
168	0xbc8833c6	-0.01662625
169	0x3d8353ca	0.06412466
170	0xbcb214ae	-0.021738376
171	0xbe0d518d	-0.1380064
172	0x3dbd467f	0.09241962
173	0x3e2d1265	0.16901548
174	0x3e27bf4b	0.16381566
175	0x3d29ce9e	0.04145681
176	0x3d28c1ab	0.04120032
177	0xbc51fd3a	-0.012816722
178	0xbd6a2be4	-0.057170764
179	0xbda82aa5	-0.08211259
180	0xbd8d9d2e	-0.06914745
181	0xbd90803c	-0.07055709
182	0x3dcf9308	0.10135466
183	0x3d21d9a7	0.03951421
184	0xbdb5e719	-0.08881969
185	0xbd70dd57	-0.058804836
186	0xbde4ef2c	-0.11178431
187	0x3dd8c6f9	0.10584826
188	0xbdf7fd84	-0.12108901
189	0xbd42b0bb	-0.047531825
190	0xbd88d1ec	-0.066806644
191	0x3d527cab	0.051388424
192	0x3e1a3c6b	0.1506211
193	0x3d319976	0.043359242
194	0x3ccbd97f	0.024883984
195	0x3d8f73fb	0.070045434
196	0xbd272e3e	-0.040815584
197	0xbdb6338f	-0.08896553
198	0x3d9b9d9f	0.07598423
199	0x3de61f76	0.112364694
200	0xbc6b9400	-0.014378548
201	0x3bbadbe0	0.0057024807
202	0x3ca9699e	0.020680245
203	0x3ddaff0b	0.10693177
204	0xbd151535	-0.036397178
205	0x3d64ecb3	0.055889796
206	0x3e246ef5	0.16057952
207	0x3c71fd7d	0.014769909
208	0x3e13ade3	0.14421801
209	0x3de32f7f	0.110930435
210	0x3daa58a3	0.08317687
211	0x3daaa097	0.08331411
212	0x3c1a6ee6	0.009425854
213	0x3d1a1791	0.03762013
214	0xbd9d487f	-0.07679843
215	0x3d4c10b1	0.049820606
216	0x3dbdc32b	0.09265741
217	0x3dbc30e6	0.09189014
218	0x3d849306	0.06473355
219	0x3a8d67cc	0.001078838
220	0x3c55d0e7	0.0130502945
221	0x3d631f60	0.055449843
222	0xbb15a097	-0.0022831315
223	0xbd01062e	-0.031500034
224	0x3dcba9a4	0.09944466
225	0x3dea1225	0.11429242
226	0xbd214cf8	-0.039380044
227	0xbd30a206	-0.043123268
228	0x3dda9678	0.10673231
229	0x3dc5c48b	0.09656628
230	0xbd228e94	-0.039686754
231	0x3d34f351	0.044177357
232	0xbd83146f	-0.06400382
233	0xba1c2084	-0.0005955773
234	0x3e27e704	0.16396719
235	0x3c26c75a	0.010179365
236	0x3dbf80b0	0.09350717
237	0x3dbf024d	0.09326611
238	0x3d153982	0.036431797
239	0x3cc3737e	0.023858782
240	0x3d0d32b6	0.03447219
241	0x3d22d6d8	0.039755672
242	0xbd157582	-0.036489017
243	0x3cf56972	0.029957507
244	0x3b21f0cb	0.0024710174
245	0xbd312d10	-0.043255866
246	0xbcdfe412	-0.027330432
247	0x3de9ba00	0.1141243
248	0xbd17e5ea	-0.037084498
249	0xbbba61d9	-0.005687934
250	0xbe13aee2	-0.14422181
251	0x3d95389f	0.0728619
252	0xbdaeba6e	-0.085316524
253	0x3dd7b340	0.10532236
254	0x3cd22736	0.025653463
255	0x3da1e2d0	0.07904589

bias_ih_l1 f4 [300]
0	0x3dce9eef	0.10088908
1	0xbe1322e9	-0.14368786
2	0x3c2003f5	0.009766568
3	0xbc82d7c1	-0.01597202
4	0xbd38ca31	-0.0451147
5	0xbd8bc44e	-0.068245515
6	0x3bd1f953	0.0064078956
7	0xbd34c2fc	-0.044131264
8	0xbd9898b1	-0.074509986
9	0xbc37186b	-0.011175255
10	0xbd7f568b	-0.062338393
11	0xbd8988e6	-0.067155644
12	0xbca837ed	-0.02053448
13	0xbd3b74d9	-0.04576573
14	0xbd92a66f	-0.07160651
15	0xbca1d371	-0.019754143
16	0xbdcf71f9	-0.101291604
17	0xbe0a5aa3	-0.13511138
18	0xbc95c49e	-0.018282231
19	0xbd886026	-0.06658964
20	0xbd7ebf20	-0.06219399
21	0xbd0a43ae	-0.03375595
22	0xbd0da1fc	-0.03457831
23	0xbe560edc	-0.20904106
24	0xbdde6023	-0.108581804
25	0x3d71f39b	0.05907021
26	0xbd82db9b	-0.06389543
27	0x3d86f9cd	0.065906145
28	0xbd41d9bd	-0.047326792
29	0xbd3e5212	-0.046464987
30	0xbd4d6a4d	-0.050150204
31	0xbd071c2b	-0.032985847
32	0xbd9caaf2	-0.07649793
33	0xbd285cd2	-0.041104145
34	0x3ce20f38	0.027595147
35	0xbc2ddbd3	-0.010611492
36	0xbd8bdbac	-0.068290085
37	0xbc3ce6cc	-0.011529636
38	0xbd88cc32	-0.06679572
39	0xbd1ba010	-0.037994444
40	0xbdcaeb21	-0.099081285
41	0xbdea5017	-0.11441057
42	0xbd83fa1f	-0.06444191
43	0xbd915068	-0.070954144
44	0xbdd415fe	-0.10355757
45	0xbd8876cb	-0.06663283
46	0x3c216463	0.009850594
47	0x3cc68ff1	0.024238558
48	0xbc810893	-0.015751159
49	0x3d4d7d32	0.050168224
50	0xbdcb4f15	-0.09927193
51	0xbdaefc45	-0.0854421
52	0x3c627780	0.013822436
53	0x3c76c5b4	0.015061785
54	0xbe037c05	-0.12840278
55	0xbdb58d27	-0.08864813
56	0x3d03afc8	0.03215006
57	0xbd9e8623	-0.07740428
58	0xbc92c264	-0.017914958
59	0xbdda53ba	-0.10660501
60	0xbcfa5381	-0.030557396
61	0x3c90086a	0.017582137
62	0xbdebebda	-0.115195945
63	0xbd9f183f	-0.077682965
64	0xbe34136d	-0.17585535
65	0xbdb0ac09	-0.08626563
66	0xbd9e171b	-0.07719251
67	0xbd1b011f	-0.037842866
68	0xbe18f46b	-0.14936988
69	0x3c8ee7df	0.01744455
70	0xbda25116	-0.07925622
71	0xbcce9575	-0.025217751
72	0x3d779efd	0.060454357
73	0xbde13caf	-0.109979026
74	0xbda540e1	-0.08069015
75	0xbd96c6eb	-0.07362159
76	0xbe347a89	-0.17624868
77	0x3d00c32e	0.031436138
78	0x3dca06f9	0.09864611
79	0xbe365241	-0.17804815
80	0xbdec3a33	-0.11534538
81	0xbe4044e4	-0.1877628
82	0xbde57925	-0.11204747
83	0xbd54f5c7	-0.051992204
84	0xbca727e9	-0.020404773
85	0x3b80fa89	0.003936116
86	0xbdfbfaf9	-0.123037286
87	0xbdd8ab0a	-0.10579498
88	0xbdb24b30	-0.08705747
89	0xbe2ff614	-0.17183715
90	0x3d304d96	0.04304274
91	0x3d5ac858	0.05341372
92	0xbdf9ee17	-0.12203615
93	0xbd4fd3f6	-0.05073925
94	0xbc191847	-0.009344167
95	0xbdae26bc	-0.08503482
96	0x3c05d9fb	0.008169646
97	0xbd1d694c	-0.038430497
98	0xbdc9c51e	-0.0985205
99	0xbcc4055b	-0.023928335
100	0x3e15ad59	0.14616908
101	0xbdacca27	-0.08436995
102	0xbdce5064	-0.10073927
103	0x3c68e110	0.014213815
104	0xbe075ee7	-0.13219796
105	0x3d2c31eb	0.042039793
106	0x3d360fd7	0.0444487
107	0xbe246eac	-0.16057843
108	0x3c633bc7	0.0138692325
109	0x3ca95e13	0.02067474
110	0x3de391b0	0.11111772
111	0xbdf7df12	-0.12103094
112	0x3d9c1955	0.07622019
113	0xbd0cefe2	-0.034408458
114	0x3e850a25	0.25984302
115	0x3e25e744	0.16201502
116	0x3e2ec139	0.17065896
117	0x3e5523ce	0.2081444
118	0x3d9cf584	0.07664016
119	0xbe031695	-0.12801583
120	0xbe2ccf81	-0.16876031
121	0x3c99bce2	0.018766824
122	0x3dec66b3	0.11543026
123	0xbd4c82c3	-0.04992939
124	0xbe5cf4bd	-0.21577735
125	0x3e6e5e21	0.23278095
126	0x3e4f0d0d	0.20219822
127	0xbde59460	-0.11209941
128	0x3d94a651	0.07258285
129	0x3e3f18e5	0.1866184
130	0xbddbf76c	-0.10740551
131	0x3e2a75a8	0.16646445
132	0x3e5849b8	0.21121871
133	0xbd8a1914	-0.067430645
134	0x3da30bf3	0.079612635
135	0x3e514331	0.20435788
136	0xbd8fe777	-0.0702657
137	0x3b4fd4aa	0.003171245
138	0xbcb9316a	-0.02260657
139	0x3e097a3b	0.13425533
140	0x3dfbcea4	0.12295273
141	0x3dbf1ebf	0.09332036
142	0xbc73c156	-0.014877638
143	0xbcfaafdd	-0.030601436
144	0xbd089aaa	-0.033350624
145	0x3e6eda6b	0.23325507
146	0x3cbc2ff7	0.02297209
147	0xbd8e8b9d	-0.06960223
148	0xbd335ce9	-0.043789778
149	0xbe127716	-0.1430324
150	0x3e4067b9	0.18789567
151	0xbda82391	-0.08209909
152	0x3e00c171	0.12573792
153	0x3d69f0fe	0.057114594
154	0x3e4608a2	0.1933923
155	0xbd535bca	-0.05160121
156	0x3d1342d9	0.035952423
157	0x3bf3db66	0.007441926
158	0x3d8d958b	0.06913289
159	0xbe17d13f	-0.14825915
160	0x3e00afab	0.12567012
161	0xbdcfd7b2	-0.101485625
162	0x3e6d3604	0.23165137
163	0x3e6514cd	0.22371216
164	0xbe3524d0	-0.17689824
165	0x3d3bd1a4	0.045854226
166	0x3d65b39a	0.056079485
167	0x3e668a79	0.2251376
168	0xbdda12f8	-0.10648149
169	0xbc344e37	-0.011004976
170	0x3eabc8a2	0.33551508
171	0x3d2dd671	0.042440835
172	0xbd8e3add	-0.06944821
173	0x3e569bf9	0.20957936
174	0x3bdec29d	0.006798102
175	0xbc8b2ab7	-0.016988141
176	0xbd3e6552	-0.046483345
177	0xbb35a708	-0.0027717967
178	0x3d8d3690	0.068951726
179	0x3d97ff96	0.07421796
180	0xbe07c7a1	-0.13259746
181	0xbd96f338	-0.07370609
182	0x3bdb93ad	0.006700954
183	0x3c04861e	0.008088617
184	0xbdd92130	-0.10602033
185	0x3d58603c	0.05282615
186	0x3df7eeef	0.1210612
187	0x3d9b962a	0.07597001
188	0x3cc9dac4	0.024640448
189	0x3d9b1f27	0.07574301
190	0x3d649a9d	0.055811513
191	0x3e15c077	0.14624201
192	0x3db1d545	0.08683256
193	0x3dab27ca	0.083571985
194	0xbdaf510f	-0.085603826
195	0x3e83d840	0.25750923
196	0x3e427da4	0.1899324
197	0xbd774e35	-0.06037732
198	0x3d039052	0.032120056
199	0x3df23f38	0.11828464
200	0xbddd056a	-0.10792048
201	0xbc23d38d	-0.009999168
202	0x3e4c2eb7	0.19939695
203	0x3e19009f	0.14941643
204	0xbd7ebb2c	-0.06219022
205	0xbc969330	-0.018380731
206	0xbbc8c92e	-0.006127498
207	0x3ce2cc37	0.027685268
208	0xbdfb7101	-0.12277413
209	0xbd575a32	-0.05257625
210	0xba5e0d21	-0.0008470584
211	0x3e04fbbb	0.12986653
212	0xbd121394	-0.035663202
213	0x3c384020	0.011245757
214	0xbde6ecb6	-0.11275618
215	0xbb30138c	-0.002686712
216	0x3de41352	0.111364976
217	0xbdbc2b08	-0.09187895
218	0x3dba0578	0.09083074
219	0x3d31573a	0.043296076
220	0x3dad0104	0.08447459
221	0xbc234374	-0.009964813
222	0x3db58b0b	0.08864411
223	0xbd965681	-0.07340718
224	0xbc34eaed	-0.011042339
225	0xbd6e3b4c	-0.05816202
226	0x3b643af5	0.003482518
227	0xbe306eed	-0.17229815
228	0xbd5e3523	-0.054249894
229	0xbdbf547c	-0.09342286
230	0xbe09610b	-0.13415925
231	0xbce784cc	-0.028261565
232	0xbd8402f2	-0.06445874
233	0x3c1b00b7	0.00946062
234	0xbc25ef3d	-0.01012784
235	0xbd90bc29	-0.07067139
236	0x3d5031b1	0.05082864
237	0x3e03a50a	0.12855926
238	0xbd60e2f0	-0.054903924
239	0xbd8293f2	-0.063758746
240	0x3d785914	0.060631827
241	0x3bf2df67	0.0074118855
242	0xbe2ccf60	-0.16875982
243	0xbd20cad7	-0.039255943
244	0x3d286190	0.041108668
245	0x3cf5b69d	0.029994303
246	0x3cf212bd	0.02954995
247	0x3dde7830	0.10862768
248	0x3d38f863	0.045158755
249	0x3e53b8e6	0.20676002
250	0x3d9d59ab	0.076831184
251	0xbd47d94b	-0.04879121
252	0xbd5cd134	-0.05391045
253	0x3add9210	0.0016904492
254	0xbd04dc96	-0.03243693
255	0x3d86cac5	0.06581644
